…
2023-01-08 19:42:40,628 INFO     GraphTabDataset Summary
2023-01-08 19:42:40,628 INFO     =======================
2023-01-08 19:42:40,628 INFO     # observations : 13784
2023-01-08 19:42:40,637 INFO     # cell-lines   : 856
2023-01-08 19:42:40,644 INFO     # drugs        : 181
2023-01-08 19:42:40,644 INFO     # genes        : 293
2023-01-08 19:42:40,645 INFO     GraphTab_v2(
  (cell_emb): Sequential(
    (0): GATConv(4, 256, heads=1)
    (1): ReLU(inplace=True)
    (2): Dropout(p=0.1, inplace=False)
    (3): GATConv(256, 128, heads=1)
    (4): ReLU(inplace=True)
    (5): <function global_max_pool at 0x7ff1fc88af80>
    (6): Linear(in_features=128, out_features=128, bias=True)
    (7): BatchNorm1d(128, eps=1e-05, momentum=0.1, affine=True, track_running_stats=True)
    (8): ReLU()
    (9): Dropout(p=0.1, inplace=False)
    (10): Linear(in_features=128, out_features=128, bias=True)
    (11): ReLU()
  )
  (drug_emb): Sequential(
    (0): Linear(in_features=256, out_features=128, bias=True)
    (1): BatchNorm1d(128, eps=1e-05, momentum=0.1, affine=True, track_running_stats=True)
    (2): ReLU()
    (3): Dropout(p=0.1, inplace=False)
    (4): Linear(in_features=128, out_features=128, bias=True)
    (5): BatchNorm1d(128, eps=1e-05, momentum=0.1, affine=True, track_running_stats=True)
    (6): ReLU()
  )
  (fcn): Sequential(
    (0): Linear(in_features=256, out_features=128, bias=True)
    (1): BatchNorm1d(128, eps=1e-05, momentum=0.1, affine=True, track_running_stats=True)
    (2): ELU(alpha=1.0)
    (3): Dropout(p=0.1, inplace=False)
    (4): Linear(in_features=128, out_features=64, bias=True)
    (5): BatchNorm1d(64, eps=1e-05, momentum=0.1, affine=True, track_running_stats=True)
    (6): ELU(alpha=1.0)
    (7): Dropout(p=0.1, inplace=False)
    (8): Linear(in_features=64, out_features=1, bias=True)
  )
)
2023-01-08 19:44:22,811 INFO     ===Epoch 001===
2023-01-08 19:44:22,812 INFO     Train      | MSE: 2.89965
2023-01-08 19:44:22,813 INFO     Validation | MSE: 2.43130
2023-01-08 19:46:07,169 INFO     ===Epoch 002===
2023-01-08 19:46:07,170 INFO     Train      | MSE: 2.25354
2023-01-08 19:46:07,170 INFO     Validation | MSE: 2.15229
2023-01-08 19:47:42,645 INFO     ===Epoch 003===
…
