…
2022-12-23 02:04:58,434 INFO     Finished creating pytorch training datasets!
2022-12-23 02:04:58,434 INFO     Number of batches per dataset:
2022-12-23 02:04:58,434 INFO       train : 111
2022-12-23 02:04:58,434 INFO       test  : 14
2022-12-23 02:04:58,434 INFO       val   : 14
2022-12-23 02:04:58,481 INFO     device: cuda
2022-12-23 02:05:00,058 INFO     GraphTab_v2(
  (cell_emb): Sequential(
    (0): GATConv(4, 256, heads=1)
    (1): ReLU(inplace=True)
    (2): Dropout(p=0.1, inplace=False)
    (3): GATConv(256, 128, heads=1)
    (4): ReLU(inplace=True)
    (5): <function global_max_pool at 0x7f067ca10d30>
    (6): Linear(in_features=128, out_features=128, bias=True)
    (7): BatchNorm1d(128, eps=1e-05, momentum=0.1, affine=True, track_running_stats=True)
    (8): ReLU()
    (9): Dropout(p=0.1, inplace=False)
    (10): Linear(in_features=128, out_features=128, bias=True)
    (11): ReLU()
  )
  (drug_emb): Sequential(
    (0): Linear(in_features=256, out_features=128, bias=True)
    (1): BatchNorm1d(128, eps=1e-05, momentum=0.1, affine=True, track_running_stats=True)
    (2): ReLU()
    (3): Dropout(p=0.1, inplace=False)
    (4): Linear(in_features=128, out_features=128, bias=True)
    (5): BatchNorm1d(128, eps=1e-05, momentum=0.1, affine=True, track_running_stats=True)
    (6): ReLU()
  )
  (fcn): Sequential(
    (0): Linear(in_features=256, out_features=128, bias=True)
    (1): BatchNorm1d(128, eps=1e-05, momentum=0.1, affine=True, track_running_stats=True)
    (2): ELU(alpha=1.0)
    (3): Dropout(p=0.1, inplace=False)
    (4): Linear(in_features=128, out_features=64, bias=True)
    (5): BatchNorm1d(64, eps=1e-05, momentum=0.1, affine=True, track_running_stats=True)
    (6): ELU(alpha=1.0)
    (7): Dropout(p=0.1, inplace=False)
    (8): Linear(in_features=64, out_features=1, bias=True)
  )
)
2022-12-23 02:05:53,705 INFO     ===Epoch 001===
2022-12-23 02:05:53,706 INFO     Train      | MSE: 10.02353
2022-12-23 02:05:53,706 INFO     Validation | MSE: 9.98352
2022-12-23 02:06:46,882 INFO     ===Epoch 002===
2022-12-23 02:06:46,883 INFO     Train      | MSE: 7.46951
2022-12-23 02:06:46,883 INFO     Validation | MSE: 7.51339
2022-12-23 02:08:10,844 INFO     Finished reading drug response matrix: (137835, 9)
…
