…
2023-03-05 01:46:36,864 INFO         Finished creating pytorch training datasets!
2023-03-05 01:46:36,864 INFO         Number of batches per dataset:
2023-03-05 01:46:36,864 INFO             train : 862
2023-03-05 01:46:36,864 INFO             test  : 216
2023-03-05 01:46:36,864 INFO     device: cpu
2023-03-05 01:46:36,953 INFO     Number of GPUs: 0
2023-03-05 01:46:36,954 INFO     GPU Usage: 0
2023-03-05 01:46:36,955 INFO     GraphGraph(
  (cell_emb): Sequential(
    (0): GATConv(4, 8, heads=1)
    (1): ReLU(inplace=True)
    (2): GATConv(8, 8, heads=1)
    (3): ReLU(inplace=True)
    (4): GATConv(8, 8, heads=1)
    (5): <function global_max_pool at 0x7f55feb06440>
    (6): Linear(in_features=8, out_features=512, bias=True)
    (7): BatchNorm1d(512, eps=1e-05, momentum=0.1, affine=True, track_running_stats=True)
    (8): ReLU()
    (9): Dropout(p=0.2, inplace=False)
    (10): Linear(in_features=512, out_features=128, bias=True)
    (11): ReLU()
    (12): Dropout(p=0.2, inplace=False)
  )
  (drug_emb): Sequential(
    (0): GINConv(nn=Sequential(
    (0): Linear(in_features=9, out_features=128, bias=True)
    (1): BatchNorm1d(128, eps=1e-05, momentum=0.1, affine=True, track_running_stats=True)
    (2): ReLU()
    (3): Linear(in_features=128, out_features=128, bias=True)
  ))
    (1): ReLU(inplace=True)
    (2): BatchNorm1d(128, eps=1e-05, momentum=0.1, affine=True, track_running_stats=True)
    (3): GINConv(nn=Sequential(
    (0): Linear(in_features=128, out_features=128, bias=True)
    (1): BatchNorm1d(128, eps=1e-05, momentum=0.1, affine=True, track_running_stats=True)
    (2): ReLU()
    (3): Linear(in_features=128, out_features=128, bias=True)
  ))
    (4): ReLU(inplace=True)
    (5): BatchNorm1d(128, eps=1e-05, momentum=0.1, affine=True, track_running_stats=True)
    (6): <function global_max_pool at 0x7f55feb06440>
    (7): Linear(in_features=128, out_features=128, bias=True)
    (8): BatchNorm1d(128, eps=1e-05, momentum=0.1, affine=True, track_running_stats=True)
    (9): ReLU()
    (10): Dropout(p=0.1, inplace=False)
    (11): Linear(in_features=128, out_features=128, bias=True)
    (12): ReLU()
  )
  (fcn): Sequential(
    (0): Linear(in_features=256, out_features=128, bias=True)
    (1): BatchNorm1d(128, eps=1e-05, momentum=0.1, affine=True, track_running_stats=True)
    (2): ELU(alpha=1.0)
    (3): Dropout(p=0.2, inplace=False)
    (4): Linear(in_features=128, out_features=64, bias=True)
    (5): BatchNorm1d(64, eps=1e-05, momentum=0.1, affine=True, track_running_stats=True)
    (6): ELU(alpha=1.0)
    (7): Dropout(p=0.2, inplace=False)
    (8): Linear(in_features=64, out_features=1, bias=True)
  )
)
2023-03-05 01:46:36,955 INFO     TRAINING the model
2023-03-05 17:06:01,705 INFO     Finished reading drug response matrix: (137835, 9)
2023-03-05 17:06:01,762 INFO     DRM Number of unique cell-lines: 856
2023-03-05 17:06:08,769 INFO     Finished reading cell-line graphs: Data(x=[458, 4], edge_index=[2, 2380])
2023-03-05 17:06:09,053 INFO     Finished reading drug SMILES graphs: Data(x=[26, 9], edge_index=[2, 60], edge_attr=[60, 3], smiles='CC[C@@]1(c2cc3c4c(cc5ccccc5n4)Cn3c(=O)c2COC1=O)O')
…
2023-03-05 17:21:05,568 INFO     # drugs        : 181
2023-03-05 17:21:05,568 INFO     # genes        : 458
2023-03-05 17:21:05,568 INFO         Finished creating pytorch training datasets!
2023-03-05 17:21:05,568 INFO         Number of batches per dataset:
2023-03-05 17:21:05,568 INFO             train : 862
2023-03-05 17:21:05,568 INFO             test  : 216
2023-03-05 17:21:05,568 INFO     device: cuda
2023-03-05 17:21:05,635 INFO     Number of GPUs: 1
2023-03-05 17:21:05,636 INFO     GPU Usage: 0
2023-03-05 17:21:08,019 INFO     GraphGraph(
  (cell_emb): Sequential(
    (0): GATConv(4, 8, heads=1)
    (1): BatchNorm1d(8, eps=1e-05, momentum=0.1, affine=True, track_running_stats=True)
    (2): ReLU(inplace=True)
    (3): GATConv(8, 8, heads=1)
    (4): BatchNorm1d(8, eps=1e-05, momentum=0.1, affine=True, track_running_stats=True)
    (5): ReLU(inplace=True)
    (6): GATConv(8, 8, heads=1)
    (7): BatchNorm1d(8, eps=1e-05, momentum=0.1, affine=True, track_running_stats=True)
    (8): <function global_max_pool at 0x7f364db92440>
    (9): Linear(in_features=8, out_features=512, bias=True)
    (10): ReLU()
    (11): Dropout(p=0.2, inplace=False)
    (12): Linear(in_features=512, out_features=128, bias=True)
    (13): ReLU()
    (14): Dropout(p=0.2, inplace=False)
  )
  (drug_emb): Sequential(
    (0): GINConv(nn=Sequential(
    (0): Linear(in_features=9, out_features=128, bias=True)
    (1): BatchNorm1d(128, eps=1e-05, momentum=0.1, affine=True, track_running_stats=True)
    (2): ReLU()
    (3): Linear(in_features=128, out_features=128, bias=True)
  ))
    (1): ReLU(inplace=True)
    (2): BatchNorm1d(128, eps=1e-05, momentum=0.1, affine=True, track_running_stats=True)
    (3): GINConv(nn=Sequential(
    (0): Linear(in_features=128, out_features=128, bias=True)
    (1): BatchNorm1d(128, eps=1e-05, momentum=0.1, affine=True, track_running_stats=True)
    (2): ReLU()
    (3): Linear(in_features=128, out_features=128, bias=True)
  ))
    (4): ReLU(inplace=True)
    (5): BatchNorm1d(128, eps=1e-05, momentum=0.1, affine=True, track_running_stats=True)
    (6): <function global_max_pool at 0x7f364db92440>
    (7): Linear(in_features=128, out_features=128, bias=True)
    (8): BatchNorm1d(128, eps=1e-05, momentum=0.1, affine=True, track_running_stats=True)
    (9): ReLU()
    (10): Dropout(p=0.1, inplace=False)
    (11): Linear(in_features=128, out_features=128, bias=True)
    (12): ReLU()
  )
  (fcn): Sequential(
    (0): Linear(in_features=256, out_features=128, bias=True)
    (1): BatchNorm1d(128, eps=1e-05, momentum=0.1, affine=True, track_running_stats=True)
    (2): ELU(alpha=1.0)
    (3): Dropout(p=0.2, inplace=False)
    (4): Linear(in_features=128, out_features=64, bias=True)
    (5): BatchNorm1d(64, eps=1e-05, momentum=0.1, affine=True, track_running_stats=True)
    (6): ELU(alpha=1.0)
    (7): Dropout(p=0.2, inplace=False)
    (8): Linear(in_features=64, out_features=1, bias=True)
  )
)
2023-03-05 17:21:08,020 INFO     TRAINING the model
2023-03-05 17:21:50,337 INFO     ===Epoch 001===
2023-03-05 17:21:50,337 INFO     Train | MSE: 6.46542 | RMSE: 2.54272 | MAE: 2.10878 | R2: 0.08939 | PCC: 0.75070 | SCC: 0.68675
2023-03-05 17:21:50,338 INFO     Test  | MSE: 3.59806 | RMSE: 1.89686 | MAE: 1.49389 | R2: 0.49432 | PCC: 0.81332 | SCC: 0.77124
…
