…
2023-02-26 21:20:00,268 INFO     # cell-lines   : 856
2023-02-26 21:20:00,268 INFO     # drugs        : 181
2023-02-26 21:20:00,268 INFO     # genes        : 293.0
2023-02-26 21:20:00,269 INFO         Finished creating pytorch training datasets!
2023-02-26 21:20:00,269 INFO         Number of batches per dataset:
2023-02-26 21:20:00,269 INFO             train : 862
2023-02-26 21:20:00,269 INFO             test  : 216
2023-02-26 21:20:00,269 INFO     device: cuda
2023-02-26 21:20:00,335 INFO     Number of GPUs: 1
2023-02-26 21:20:00,335 INFO     GPU Usage: 0
2023-02-26 21:20:02,807 INFO     TabGraph(
  (cell_emb): Sequential(
    (0): Linear(in_features=1172, out_features=516, bias=True)
    (1): BatchNorm1d(516, eps=1e-05, momentum=0.1, affine=True, track_running_stats=True)
    (2): ReLU()
    (3): Dropout(p=0.1, inplace=False)
    (4): Linear(in_features=516, out_features=256, bias=True)
    (5): BatchNorm1d(256, eps=1e-05, momentum=0.1, affine=True, track_running_stats=True)
    (6): ReLU()
    (7): Dropout(p=0.1, inplace=False)
    (8): Linear(in_features=256, out_features=128, bias=True)
    (9): BatchNorm1d(128, eps=1e-05, momentum=0.1, affine=True, track_running_stats=True)
    (10): ReLU()
  )
  (drug_emb): Sequential(
    (0): GINConv(nn=Sequential(
    (0): Linear(in_features=9, out_features=128, bias=True)
    (1): BatchNorm1d(128, eps=1e-05, momentum=0.1, affine=True, track_running_stats=True)
    (2): ReLU()
    (3): Linear(in_features=128, out_features=128, bias=True)
  ))
    (1): ReLU(inplace=True)
    (2): BatchNorm1d(128, eps=1e-05, momentum=0.1, affine=True, track_running_stats=True)
    (3): GINConv(nn=Sequential(
    (0): Linear(in_features=128, out_features=128, bias=True)
    (1): BatchNorm1d(128, eps=1e-05, momentum=0.1, affine=True, track_running_stats=True)
    (2): ReLU()
    (3): Linear(in_features=128, out_features=128, bias=True)
  ))
    (4): ReLU(inplace=True)
    (5): BatchNorm1d(128, eps=1e-05, momentum=0.1, affine=True, track_running_stats=True)
    (6): <function global_max_pool at 0x7f270a64a320>
    (7): Linear(in_features=128, out_features=128, bias=True)
    (8): BatchNorm1d(128, eps=1e-05, momentum=0.1, affine=True, track_running_stats=True)
    (9): ReLU()
    (10): Dropout(p=0.1, inplace=False)
    (11): Linear(in_features=128, out_features=128, bias=True)
    (12): ReLU()
  )
  (fcn): Sequential(
    (0): Linear(in_features=256, out_features=128, bias=True)
    (1): BatchNorm1d(128, eps=1e-05, momentum=0.1, affine=True, track_running_stats=True)
    (2): ELU(alpha=1.0)
    (3): Dropout(p=0.1, inplace=False)
    (4): Linear(in_features=128, out_features=64, bias=True)
    (5): BatchNorm1d(64, eps=1e-05, momentum=0.1, affine=True, track_running_stats=True)
    (6): ELU(alpha=1.0)
    (7): Dropout(p=0.1, inplace=False)
    (8): Linear(in_features=64, out_features=1, bias=True)
  )
)
2023-02-26 21:20:02,807 INFO     TRAINING the model
2023-02-26 21:23:49,224 INFO     ===Epoch 001===
2023-02-26 21:23:49,226 INFO     Train | MSE: 5.02226 | RMSE: 2.24104 | MAE: 1.85763 | R2: 0.29263 | PCC: 0.80854 | SCC: 0.76481
2023-02-26 21:23:49,226 INFO     Test  | MSE: 2.55876 | RMSE: 1.59961 | MAE: 1.27820 | R2: 0.64016 | PCC: 0.87639 | SCC: 0.85260
…
