…
2023-02-12 15:39:33,049 INFO         Number of batches per dataset:
2023-02-12 15:39:33,049 INFO             train : 862
2023-02-12 15:39:33,049 INFO             test  : 216
2023-02-12 15:39:33,049 INFO     device: cuda
2023-02-12 15:39:33,106 INFO     Number of GPUs: 1
2023-02-12 15:39:33,106 INFO     GPU Usage: 0
2023-02-12 15:39:36,431 INFO     GraphTab(
  (cell_emb): Sequential(
    (0): GATConv(4, 256, heads=1)
    (1): ReLU(inplace=True)
    (2): Dropout(p=0.1, inplace=False)
    (3): GATConv(256, 128, heads=1)
    (4): ReLU(inplace=True)
    (5): <function global_max_pool at 0x7f75189ce5f0>
    (6): Linear(in_features=128, out_features=128, bias=True)
    (7): BatchNorm1d(128, eps=1e-05, momentum=0.1, affine=True, track_running_stats=True)
    (8): ReLU()
    (9): Dropout(p=0.1, inplace=False)
    (10): Linear(in_features=128, out_features=128, bias=True)
    (11): ReLU()
  )
  (drug_emb): Sequential(
    (0): Linear(in_features=256, out_features=128, bias=True)
    (1): BatchNorm1d(128, eps=1e-05, momentum=0.1, affine=True, track_running_stats=True)
    (2): ReLU()
    (3): Dropout(p=0.1, inplace=False)
    (4): Linear(in_features=128, out_features=128, bias=True)
    (5): BatchNorm1d(128, eps=1e-05, momentum=0.1, affine=True, track_running_stats=True)
    (6): ReLU()
  )
  (fcn): Sequential(
    (0): Linear(in_features=256, out_features=128, bias=True)
    (1): BatchNorm1d(128, eps=1e-05, momentum=0.1, affine=True, track_running_stats=True)
    (2): ELU(alpha=1.0)
    (3): Dropout(p=0.1, inplace=False)
    (4): Linear(in_features=128, out_features=64, bias=True)
    (5): BatchNorm1d(64, eps=1e-05, momentum=0.1, affine=True, track_running_stats=True)
    (6): ELU(alpha=1.0)
    (7): Dropout(p=0.1, inplace=False)
    (8): Linear(in_features=64, out_features=1, bias=True)
  )
)
2023-02-12 15:39:36,432 INFO     TRAINING the model
2023-02-12 15:40:51,744 INFO     ===Epoch 001===
2023-02-12 15:40:51,745 INFO     Train | MSE: 6.54179
2023-02-12 15:40:51,746 INFO     Test  | MSE: 3.44006
2023-02-12 15:42:12,916 INFO     ===Epoch 002===
2023-02-12 15:42:12,917 INFO     Train | MSE: 2.90973
2023-02-12 15:42:12,918 INFO     Test  | MSE: 2.28541
…
