…
2023-02-18 15:11:27,535 INFO         Finished creating pytorch training datasets!
2023-02-18 15:11:27,535 INFO         Number of batches per dataset:
2023-02-18 15:11:27,535 INFO             train : 862
2023-02-18 15:11:27,535 INFO             test  : 216
2023-02-18 15:11:27,535 INFO     device: cuda
2023-02-18 15:11:27,602 INFO     Number of GPUs: 1
2023-02-18 15:11:27,602 INFO     GPU Usage: 0
2023-02-18 15:11:30,009 INFO     GraphGraph(
  (cell_emb): Sequential(
    (0): GCNConv(4, 256)
    (1): ReLU(inplace=True)
    (2): GCNConv(256, 128)
    (3): ReLU(inplace=True)
    (4): <function global_max_pool at 0x7f72026068c0>
    (5): Linear(in_features=128, out_features=128, bias=True)
    (6): BatchNorm1d(128, eps=1e-05, momentum=0.1, affine=True, track_running_stats=True)
    (7): ReLU()
    (8): Dropout(p=0.1, inplace=False)
    (9): Linear(in_features=128, out_features=128, bias=True)
    (10): ReLU()
  )
  (drug_emb): Sequential(
    (0): GINConv(nn=Sequential(
    (0): Linear(in_features=9, out_features=128, bias=True)
    (1): BatchNorm1d(128, eps=1e-05, momentum=0.1, affine=True, track_running_stats=True)
    (2): ReLU()
    (3): Linear(in_features=128, out_features=128, bias=True)
  ))
    (1): ReLU(inplace=True)
    (2): BatchNorm1d(128, eps=1e-05, momentum=0.1, affine=True, track_running_stats=True)
    (3): GINConv(nn=Sequential(
    (0): Linear(in_features=128, out_features=128, bias=True)
    (1): BatchNorm1d(128, eps=1e-05, momentum=0.1, affine=True, track_running_stats=True)
    (2): ReLU()
    (3): Linear(in_features=128, out_features=128, bias=True)
  ))
    (4): ReLU(inplace=True)
    (5): BatchNorm1d(128, eps=1e-05, momentum=0.1, affine=True, track_running_stats=True)
    (6): <function global_max_pool at 0x7f72026068c0>
    (7): Linear(in_features=128, out_features=128, bias=True)
    (8): BatchNorm1d(128, eps=1e-05, momentum=0.1, affine=True, track_running_stats=True)
    (9): ReLU()
    (10): Dropout(p=0.1, inplace=False)
    (11): Linear(in_features=128, out_features=128, bias=True)
    (12): ReLU()
  )
  (fcn): Sequential(
    (0): Linear(in_features=256, out_features=128, bias=True)
    (1): BatchNorm1d(128, eps=1e-05, momentum=0.1, affine=True, track_running_stats=True)
    (2): ELU(alpha=1.0)
    (3): Dropout(p=0.1, inplace=False)
    (4): Linear(in_features=128, out_features=64, bias=True)
    (5): BatchNorm1d(64, eps=1e-05, momentum=0.1, affine=True, track_running_stats=True)
    (6): ELU(alpha=1.0)
    (7): Dropout(p=0.1, inplace=False)
    (8): Linear(in_features=64, out_features=1, bias=True)
  )
)
2023-02-18 15:11:30,010 INFO     TRAINING the model
2023-02-18 15:12:06,373 INFO     ===Epoch 001===
2023-02-18 15:12:06,373 INFO     Train | MSE: 6.01325 | RMSE: 2.45219 | MAE: 2.04417 | R2: 0.15299 | PCC: 0.78109 | SCC: 0.72419
2023-02-18 15:12:06,374 INFO     Test  | MSE: 4.47045 | RMSE: 2.11434 | MAE: 1.76546 | R2: 0.37036 | PCC: 0.83372 | SCC: 0.79781
…
