…
2023-02-12 23:10:38,358 INFO         Number of batches per dataset:
2023-02-12 23:10:38,358 INFO             train : 862
2023-02-12 23:10:38,358 INFO             test  : 216
2023-02-12 23:10:38,359 INFO     device: cuda
2023-02-12 23:10:38,421 INFO     Number of GPUs: 1
2023-02-12 23:10:38,421 INFO     GPU Usage: 0
2023-02-12 23:10:40,962 INFO     GraphTab(
  (cell_emb): Sequential(
    (0): GATConv(4, 512, heads=1)
    (1): ReLU(inplace=True)
    (2): GATConv(512, 256, heads=1)
    (3): ReLU(inplace=True)
    (4): GATConv(256, 128, heads=1)
    (5): ReLU(inplace=True)
    (6): <function global_max_pool at 0x7f2cb9f425f0>
    (7): Linear(in_features=128, out_features=128, bias=True)
    (8): BatchNorm1d(128, eps=1e-05, momentum=0.1, affine=True, track_running_stats=True)
    (9): ReLU()
    (10): Dropout(p=0.1, inplace=False)
    (11): Linear(in_features=128, out_features=128, bias=True)
    (12): ReLU()
  )
  (drug_emb): Sequential(
    (0): Linear(in_features=256, out_features=128, bias=True)
    (1): BatchNorm1d(128, eps=1e-05, momentum=0.1, affine=True, track_running_stats=True)
    (2): ReLU()
    (3): Dropout(p=0.1, inplace=False)
    (4): Linear(in_features=128, out_features=128, bias=True)
    (5): BatchNorm1d(128, eps=1e-05, momentum=0.1, affine=True, track_running_stats=True)
    (6): ReLU()
  )
  (fcn): Sequential(
    (0): Linear(in_features=256, out_features=128, bias=True)
    (1): BatchNorm1d(128, eps=1e-05, momentum=0.1, affine=True, track_running_stats=True)
    (2): ELU(alpha=1.0)
    (3): Dropout(p=0.1, inplace=False)
    (4): Linear(in_features=128, out_features=64, bias=True)
    (5): BatchNorm1d(64, eps=1e-05, momentum=0.1, affine=True, track_running_stats=True)
    (6): ELU(alpha=1.0)
    (7): Dropout(p=0.1, inplace=False)
    (8): Linear(in_features=64, out_features=1, bias=True)
  )
)
2023-02-12 23:10:40,963 INFO     TRAINING the model
2023-02-12 23:12:08,577 INFO     ===Epoch 001===
2023-02-12 23:12:08,578 INFO     Train | MSE: 6.77418
2023-02-12 23:12:08,578 INFO     Test  | MSE: 5.38898
2023-02-12 23:13:30,278 INFO     ===Epoch 002===
2023-02-12 23:13:30,279 INFO     Train | MSE: 2.77063
2023-02-12 23:13:30,280 INFO     Test  | MSE: 2.16734
…
