…
2023-02-15 22:53:22,211 INFO         Finished creating pytorch training datasets!
2023-02-15 22:53:22,211 INFO         Number of batches per dataset:
2023-02-15 22:53:22,211 INFO             train : 431
2023-02-15 22:53:22,211 INFO             test  : 108
2023-02-15 22:53:22,212 INFO     device: cuda
2023-02-15 22:53:22,277 INFO     Number of GPUs: 1
2023-02-15 22:53:22,277 INFO     GPU Usage: 0
2023-02-15 22:53:24,741 INFO     GraphGraph(
  (cell_emb): Sequential(
    (0): GCNConv(4, 256)
    (1): ReLU(inplace=True)
    (2): Dropout(p=0.1, inplace=False)
    (3): GCNConv(256, 128)
    (4): ReLU(inplace=True)
    (5): <function global_max_pool at 0x7f98411ee8c0>
    (6): Linear(in_features=128, out_features=128, bias=True)
    (7): BatchNorm1d(128, eps=1e-05, momentum=0.1, affine=True, track_running_stats=True)
    (8): ReLU()
    (9): Dropout(p=0.1, inplace=False)
    (10): Linear(in_features=128, out_features=128, bias=True)
    (11): ReLU()
  )
  (drug_emb): Sequential(
    (0): GINConv(nn=Sequential(
    (0): Linear(in_features=9, out_features=128, bias=True)
    (1): BatchNorm1d(128, eps=1e-05, momentum=0.1, affine=True, track_running_stats=True)
    (2): ReLU()
    (3): Linear(in_features=128, out_features=128, bias=True)
  ))
    (1): ReLU(inplace=True)
    (2): BatchNorm1d(128, eps=1e-05, momentum=0.1, affine=True, track_running_stats=True)
    (3): GINConv(nn=Sequential(
    (0): Linear(in_features=128, out_features=128, bias=True)
    (1): BatchNorm1d(128, eps=1e-05, momentum=0.1, affine=True, track_running_stats=True)
    (2): ReLU()
    (3): Linear(in_features=128, out_features=128, bias=True)
  ))
    (4): ReLU(inplace=True)
    (5): BatchNorm1d(128, eps=1e-05, momentum=0.1, affine=True, track_running_stats=True)
    (6): <function global_max_pool at 0x7f98411ee8c0>
    (7): Linear(in_features=128, out_features=128, bias=True)
    (8): BatchNorm1d(128, eps=1e-05, momentum=0.1, affine=True, track_running_stats=True)
    (9): ReLU()
    (10): Dropout(p=0.1, inplace=False)
    (11): Linear(in_features=128, out_features=128, bias=True)
    (12): ReLU()
  )
  (fcn): Sequential(
    (0): Linear(in_features=256, out_features=128, bias=True)
    (1): BatchNorm1d(128, eps=1e-05, momentum=0.1, affine=True, track_running_stats=True)
    (2): ELU(alpha=1.0)
    (3): Dropout(p=0.1, inplace=False)
    (4): Linear(in_features=128, out_features=64, bias=True)
    (5): BatchNorm1d(64, eps=1e-05, momentum=0.1, affine=True, track_running_stats=True)
    (6): ELU(alpha=1.0)
    (7): Dropout(p=0.1, inplace=False)
    (8): Linear(in_features=64, out_features=1, bias=True)
  )
)
2023-02-15 22:53:24,742 INFO     TRAINING the model
2023-02-15 22:53:47,360 INFO     ===Epoch 001===
2023-02-15 22:53:47,360 INFO     Train | MSE: 7.40653
2023-02-15 22:53:47,360 INFO     Test  | MSE: 6.36713
2023-02-15 22:54:09,240 INFO     ===Epoch 002===
2023-02-15 22:54:09,240 INFO     Train | MSE: 4.44135
2023-02-15 22:54:09,240 INFO     Test  | MSE: 4.11046
…
2023-02-15 22:57:44,187 INFO         Number of batches per dataset:
2023-02-15 22:57:44,187 INFO             train : 431
2023-02-15 22:57:44,187 INFO             test  : 108
2023-02-15 22:57:44,187 INFO     device: cuda
2023-02-15 22:57:44,258 INFO     Number of GPUs: 1
2023-02-15 22:57:44,258 INFO     GPU Usage: 0
2023-02-15 22:57:46,715 INFO     GraphGraph(
  (cell_emb): Sequential(
    (0): GCNConv(4, 128)
    (1): ReLU(inplace=True)
    (2): GCNConv(128, 128)
    (3): ReLU(inplace=True)
    (4): GCNConv(128, 128)
    (5): ReLU(inplace=True)
    (6): GCNConv(128, 128)
    (7): ReLU(inplace=True)
    (8): <function global_max_pool at 0x7f22330828c0>
    (9): Linear(in_features=128, out_features=128, bias=True)
    (10): BatchNorm1d(128, eps=1e-05, momentum=0.1, affine=True, track_running_stats=True)
    (11): ReLU()
    (12): Dropout(p=0.1, inplace=False)
    (13): Linear(in_features=128, out_features=128, bias=True)
    (14): BatchNorm1d(128, eps=1e-05, momentum=0.1, affine=True, track_running_stats=True)
    (15): ReLU()
    (16): Dropout(p=0.1, inplace=False)
    (17): Linear(in_features=128, out_features=128, bias=True)
    (18): ReLU()
  )
  (drug_emb): Sequential(
    (0): GINConv(nn=Sequential(
    (0): Linear(in_features=9, out_features=128, bias=True)
    (1): BatchNorm1d(128, eps=1e-05, momentum=0.1, affine=True, track_running_stats=True)
    (2): ReLU()
    (3): Linear(in_features=128, out_features=128, bias=True)
  ))
    (1): ReLU(inplace=True)
    (2): BatchNorm1d(128, eps=1e-05, momentum=0.1, affine=True, track_running_stats=True)
    (3): GINConv(nn=Sequential(
    (0): Linear(in_features=128, out_features=128, bias=True)
    (1): BatchNorm1d(128, eps=1e-05, momentum=0.1, affine=True, track_running_stats=True)
    (2): ReLU()
    (3): Linear(in_features=128, out_features=128, bias=True)
  ))
    (4): ReLU(inplace=True)
    (5): BatchNorm1d(128, eps=1e-05, momentum=0.1, affine=True, track_running_stats=True)
    (6): <function global_max_pool at 0x7f22330828c0>
    (7): Linear(in_features=128, out_features=128, bias=True)
    (8): BatchNorm1d(128, eps=1e-05, momentum=0.1, affine=True, track_running_stats=True)
    (9): ReLU()
    (10): Dropout(p=0.1, inplace=False)
    (11): Linear(in_features=128, out_features=128, bias=True)
    (12): ReLU()
  )
  (fcn): Sequential(
    (0): Linear(in_features=256, out_features=128, bias=True)
    (1): BatchNorm1d(128, eps=1e-05, momentum=0.1, affine=True, track_running_stats=True)
    (2): ELU(alpha=1.0)
    (3): Dropout(p=0.1, inplace=False)
    (4): Linear(in_features=128, out_features=64, bias=True)
    (5): BatchNorm1d(64, eps=1e-05, momentum=0.1, affine=True, track_running_stats=True)
    (6): ELU(alpha=1.0)
    (7): Dropout(p=0.1, inplace=False)
    (8): Linear(in_features=64, out_features=1, bias=True)
  )
)
2023-02-15 22:57:46,715 INFO     TRAINING the model
2023-02-15 22:58:11,847 INFO     ===Epoch 001===
2023-02-15 22:58:11,848 INFO     Train | MSE: 7.72463
2023-02-15 22:58:11,848 INFO     Test  | MSE: 6.01602
2023-02-15 22:58:36,097 INFO     ===Epoch 002===
2023-02-15 22:58:36,098 INFO     Train | MSE: 4.49879
2023-02-15 22:58:36,098 INFO     Test  | MSE: 2.87301
…
2023-02-15 23:22:10,833 INFO     # cell-lines   : 856
2023-02-15 23:22:10,849 INFO     # drugs        : 181
2023-02-15 23:22:10,849 INFO     # genes        : 293
2023-02-15 23:22:10,850 INFO         Finished creating pytorch training datasets!
2023-02-15 23:22:10,850 INFO         Number of batches per dataset:
2023-02-15 23:22:10,850 INFO             train : 431
2023-02-15 23:22:10,850 INFO             test  : 108
2023-02-15 23:22:10,850 INFO     device: cuda
2023-02-15 23:22:10,912 INFO     Number of GPUs: 1
2023-02-15 23:22:10,912 INFO     GPU Usage: 0
2023-02-15 23:22:13,398 INFO     GraphGraph(
  (cell_emb): Sequential(
    (0): Linear(in_features=4, out_features=516, bias=True)
    (1): BatchNorm1d(516, eps=1e-05, momentum=0.1, affine=True, track_running_stats=True)
    (2): ReLU()
    (3): Dropout(p=0.1, inplace=False)
    (4): Linear(in_features=516, out_features=256, bias=True)
    (5): BatchNorm1d(256, eps=1e-05, momentum=0.1, affine=True, track_running_stats=True)
    (6): ReLU()
    (7): Dropout(p=0.1, inplace=False)
    (8): Linear(in_features=256, out_features=128, bias=True)
    (9): BatchNorm1d(128, eps=1e-05, momentum=0.1, affine=True, track_running_stats=True)
    (10): ReLU()
  )
  (drug_emb): Sequential(
    (0): GINConv(nn=Sequential(
    (0): Linear(in_features=9, out_features=128, bias=True)
    (1): BatchNorm1d(128, eps=1e-05, momentum=0.1, affine=True, track_running_stats=True)
    (2): ReLU()
    (3): Linear(in_features=128, out_features=128, bias=True)
  ))
    (1): ReLU(inplace=True)
    (2): BatchNorm1d(128, eps=1e-05, momentum=0.1, affine=True, track_running_stats=True)
    (3): GINConv(nn=Sequential(
    (0): Linear(in_features=128, out_features=128, bias=True)
    (1): BatchNorm1d(128, eps=1e-05, momentum=0.1, affine=True, track_running_stats=True)
    (2): ReLU()
    (3): Linear(in_features=128, out_features=128, bias=True)
  ))
    (4): ReLU(inplace=True)
    (5): BatchNorm1d(128, eps=1e-05, momentum=0.1, affine=True, track_running_stats=True)
    (6): <function global_max_pool at 0x7f110f82a8c0>
    (7): Linear(in_features=128, out_features=128, bias=True)
    (8): BatchNorm1d(128, eps=1e-05, momentum=0.1, affine=True, track_running_stats=True)
    (9): ReLU()
    (10): Dropout(p=0.1, inplace=False)
    (11): Linear(in_features=128, out_features=128, bias=True)
    (12): ReLU()
  )
  (fcn): Sequential(
    (0): Linear(in_features=256, out_features=128, bias=True)
    (1): BatchNorm1d(128, eps=1e-05, momentum=0.1, affine=True, track_running_stats=True)
    (2): ELU(alpha=1.0)
    (3): Dropout(p=0.1, inplace=False)
    (4): Linear(in_features=128, out_features=64, bias=True)
    (5): BatchNorm1d(64, eps=1e-05, momentum=0.1, affine=True, track_running_stats=True)
    (6): ELU(alpha=1.0)
    (7): Dropout(p=0.1, inplace=False)
    (8): Linear(in_features=64, out_features=1, bias=True)
  )
)
2023-02-15 23:22:13,399 INFO     TRAINING the model
2023-02-15 23:23:23,999 INFO     Finished reading drug response matrix: (137835, 9)
2023-02-15 23:23:24,006 INFO     DRM Number of unique cell-lines: 856
2023-02-15 23:23:24,285 INFO     Finished reading cell-line graphs: Data(x=[293, 4], edge_index=[2, 874])
2023-02-15 23:23:24,341 INFO     Finished reading drug SMILES graphs: Data(x=[26, 9], edge_index=[2, 60], edge_attr=[60, 3], smiles='CC[C@@]1(c2cc3c4c(cc5ccccc5n4)Cn3c(=O)c2COC1=O)O')
…
2023-02-15 23:23:24,859 INFO         Number of batches per dataset:
2023-02-15 23:23:24,859 INFO             train : 431
2023-02-15 23:23:24,859 INFO             test  : 108
2023-02-15 23:23:24,859 INFO     device: cuda
2023-02-15 23:23:24,927 INFO     Number of GPUs: 1
2023-02-15 23:23:24,927 INFO     GPU Usage: 0
2023-02-15 23:23:27,359 INFO     GraphGraph(
  (cell_emb): Sequential(
    (0): GCNConv(4, 512)
    (1): ReLU(inplace=True)
    (2): GCNConv(512, 256)
    (3): ReLU(inplace=True)
    (4): GCNConv(256, 128)
    (5): ReLU(inplace=True)
    (6): GCNConv(128, 128)
    (7): ReLU(inplace=True)
    (8): <function global_max_pool at 0x7f76e8f2a8c0>
    (9): Linear(in_features=128, out_features=128, bias=True)
    (10): BatchNorm1d(128, eps=1e-05, momentum=0.1, affine=True, track_running_stats=True)
    (11): ReLU()
    (12): Dropout(p=0.1, inplace=False)
    (13): Linear(in_features=128, out_features=128, bias=True)
    (14): BatchNorm1d(128, eps=1e-05, momentum=0.1, affine=True, track_running_stats=True)
    (15): ReLU()
    (16): Dropout(p=0.1, inplace=False)
    (17): Linear(in_features=128, out_features=128, bias=True)
    (18): BatchNorm1d(128, eps=1e-05, momentum=0.1, affine=True, track_running_stats=True)
    (19): ReLU()
  )
  (drug_emb): Sequential(
    (0): GINConv(nn=Sequential(
    (0): Linear(in_features=9, out_features=128, bias=True)
    (1): BatchNorm1d(128, eps=1e-05, momentum=0.1, affine=True, track_running_stats=True)
    (2): ReLU()
    (3): Linear(in_features=128, out_features=128, bias=True)
  ))
    (1): ReLU(inplace=True)
    (2): BatchNorm1d(128, eps=1e-05, momentum=0.1, affine=True, track_running_stats=True)
    (3): GINConv(nn=Sequential(
    (0): Linear(in_features=128, out_features=128, bias=True)
    (1): BatchNorm1d(128, eps=1e-05, momentum=0.1, affine=True, track_running_stats=True)
    (2): ReLU()
    (3): Linear(in_features=128, out_features=128, bias=True)
  ))
    (4): ReLU(inplace=True)
    (5): BatchNorm1d(128, eps=1e-05, momentum=0.1, affine=True, track_running_stats=True)
    (6): <function global_max_pool at 0x7f76e8f2a8c0>
    (7): Linear(in_features=128, out_features=128, bias=True)
    (8): BatchNorm1d(128, eps=1e-05, momentum=0.1, affine=True, track_running_stats=True)
    (9): ReLU()
    (10): Dropout(p=0.1, inplace=False)
    (11): Linear(in_features=128, out_features=128, bias=True)
    (12): ReLU()
  )
  (fcn): Sequential(
    (0): Linear(in_features=256, out_features=128, bias=True)
    (1): BatchNorm1d(128, eps=1e-05, momentum=0.1, affine=True, track_running_stats=True)
    (2): ELU(alpha=1.0)
    (3): Dropout(p=0.1, inplace=False)
    (4): Linear(in_features=128, out_features=64, bias=True)
    (5): BatchNorm1d(64, eps=1e-05, momentum=0.1, affine=True, track_running_stats=True)
    (6): ELU(alpha=1.0)
    (7): Dropout(p=0.1, inplace=False)
    (8): Linear(in_features=64, out_features=1, bias=True)
  )
)
2023-02-15 23:23:27,360 INFO     TRAINING the model
2023-02-15 23:23:56,560 INFO     ===Epoch 001===
2023-02-15 23:23:56,560 INFO     Train | MSE: 8.16590
2023-02-15 23:23:56,561 INFO     Test  | MSE: 7.93833
2023-02-15 23:24:25,398 INFO     ===Epoch 002===
2023-02-15 23:24:25,398 INFO     Train | MSE: 4.69683
2023-02-15 23:24:25,399 INFO     Test  | MSE: 4.21152
…
