…
2023-02-12 19:06:54,488 INFO         Number of batches per dataset:
2023-02-12 19:06:54,488 INFO             train : 862
2023-02-12 19:06:54,488 INFO             test  : 216
2023-02-12 19:06:54,489 INFO     device: cuda
2023-02-12 19:06:54,549 INFO     Number of GPUs: 1
2023-02-12 19:06:54,549 INFO     GPU Usage: 0
2023-02-12 19:06:57,097 INFO     GraphTab(
  (cell_emb): Sequential(
    (0): GCNConv(4, 512)
    (1): ReLU(inplace=True)
    (2): GCNConv(512, 256)
    (3): ReLU(inplace=True)
    (4): GCNConv(256, 128)
    (5): ReLU(inplace=True)
    (6): <function global_max_pool at 0x7fc545faa5f0>
    (7): Linear(in_features=128, out_features=128, bias=True)
    (8): BatchNorm1d(128, eps=1e-05, momentum=0.1, affine=True, track_running_stats=True)
    (9): ReLU()
    (10): Dropout(p=0.1, inplace=False)
    (11): Linear(in_features=128, out_features=128, bias=True)
    (12): ReLU()
  )
  (drug_emb): Sequential(
    (0): Linear(in_features=256, out_features=128, bias=True)
    (1): BatchNorm1d(128, eps=1e-05, momentum=0.1, affine=True, track_running_stats=True)
    (2): ReLU()
    (3): Dropout(p=0.1, inplace=False)
    (4): Linear(in_features=128, out_features=128, bias=True)
    (5): BatchNorm1d(128, eps=1e-05, momentum=0.1, affine=True, track_running_stats=True)
    (6): ReLU()
  )
  (fcn): Sequential(
    (0): Linear(in_features=256, out_features=128, bias=True)
    (1): BatchNorm1d(128, eps=1e-05, momentum=0.1, affine=True, track_running_stats=True)
    (2): ELU(alpha=1.0)
    (3): Dropout(p=0.1, inplace=False)
    (4): Linear(in_features=128, out_features=64, bias=True)
    (5): BatchNorm1d(64, eps=1e-05, momentum=0.1, affine=True, track_running_stats=True)
    (6): ELU(alpha=1.0)
    (7): Dropout(p=0.1, inplace=False)
    (8): Linear(in_features=64, out_features=1, bias=True)
  )
)
2023-02-12 19:06:57,098 INFO     TRAINING the model
2023-02-12 19:08:15,234 INFO     ===Epoch 001===
2023-02-12 19:08:15,235 INFO     Train | MSE: 7.32543
2023-02-12 19:08:15,235 INFO     Test  | MSE: 5.79799
2023-02-12 19:09:37,330 INFO     ===Epoch 002===
2023-02-12 19:09:37,331 INFO     Train | MSE: 2.93855
2023-02-12 19:09:37,331 INFO     Test  | MSE: 4.15021
…
