…
2023-03-04 17:24:29,670 INFO         Number of batches per dataset:
2023-03-04 17:24:29,670 INFO             train : 862
2023-03-04 17:24:29,670 INFO             test  : 216
2023-03-04 17:24:29,670 INFO     device: cuda
2023-03-04 17:24:29,738 INFO     Number of GPUs: 1
2023-03-04 17:24:29,739 INFO     GPU Usage: 0
2023-03-04 17:24:32,169 INFO     GraphGraph(
  (cell_emb): Sequential(
    (0): GATConv(4, 8, heads=1)
    (1): ReLU(inplace=True)
    (2): GATConv(8, 8, heads=1)
    (3): ReLU(inplace=True)
    (4): GATConv(8, 8, heads=1)
    (5): <function global_max_pool at 0x7fc79b99e440>
    (6): Linear(in_features=8, out_features=512, bias=True)
    (7): BatchNorm1d(512, eps=1e-05, momentum=0.1, affine=True, track_running_stats=True)
    (8): ReLU()
    (9): Dropout(p=0.2, inplace=False)
    (10): Linear(in_features=512, out_features=128, bias=True)
    (11): ReLU()
    (12): Dropout(p=0.2, inplace=False)
  )
  (drug_emb): Sequential(
    (0): GINConv(nn=Sequential(
    (0): Linear(in_features=9, out_features=128, bias=True)
    (1): BatchNorm1d(128, eps=1e-05, momentum=0.1, affine=True, track_running_stats=True)
    (2): ReLU()
    (3): Linear(in_features=128, out_features=128, bias=True)
  ))
    (1): ReLU(inplace=True)
    (2): BatchNorm1d(128, eps=1e-05, momentum=0.1, affine=True, track_running_stats=True)
    (3): GINConv(nn=Sequential(
    (0): Linear(in_features=128, out_features=128, bias=True)
    (1): BatchNorm1d(128, eps=1e-05, momentum=0.1, affine=True, track_running_stats=True)
    (2): ReLU()
    (3): Linear(in_features=128, out_features=128, bias=True)
  ))
    (4): ReLU(inplace=True)
    (5): BatchNorm1d(128, eps=1e-05, momentum=0.1, affine=True, track_running_stats=True)
    (6): <function global_max_pool at 0x7fc79b99e440>
    (7): Linear(in_features=128, out_features=128, bias=True)
    (8): BatchNorm1d(128, eps=1e-05, momentum=0.1, affine=True, track_running_stats=True)
    (9): ReLU()
    (10): Dropout(p=0.1, inplace=False)
    (11): Linear(in_features=128, out_features=128, bias=True)
    (12): ReLU()
  )
  (fcn): Sequential(
    (0): Linear(in_features=256, out_features=128, bias=True)
    (1): BatchNorm1d(128, eps=1e-05, momentum=0.1, affine=True, track_running_stats=True)
    (2): ELU(alpha=1.0)
    (3): Dropout(p=0.2, inplace=False)
    (4): Linear(in_features=128, out_features=64, bias=True)
    (5): BatchNorm1d(64, eps=1e-05, momentum=0.1, affine=True, track_running_stats=True)
    (6): ELU(alpha=1.0)
    (7): Dropout(p=0.2, inplace=False)
    (8): Linear(in_features=64, out_features=1, bias=True)
  )
)
2023-03-04 17:24:32,170 INFO     TRAINING the model
2023-03-04 17:25:10,934 INFO     ===Epoch 001===
2023-03-04 17:25:10,934 INFO     Train | MSE: 6.47970 | RMSE: 2.54553 | MAE: 2.11270 | R2: 0.08736 | PCC: 0.75028 | SCC: 0.68616
2023-03-04 17:25:10,935 INFO     Test  | MSE: 3.68261 | RMSE: 1.91901 | MAE: 1.51289 | R2: 0.48213 | PCC: 0.81316 | SCC: 0.76995
…
