…
2023-01-29 14:36:06,292 INFO     # observations : 13784
2023-01-29 14:36:06,300 INFO     # cell-lines   : 856
2023-01-29 14:36:06,307 INFO     # drugs        : 181
2023-01-29 14:36:06,307 INFO     # genes        : 293
2023-01-29 14:36:06,308 INFO     Finished creating pytorch training datasets!
2023-01-29 14:36:06,308 INFO     Number of batches per dataset:
2023-01-29 14:36:06,308 INFO       train : 1723
2023-01-29 14:36:06,308 INFO       test  : 216
2023-01-29 14:36:06,308 INFO       val   : 216
2023-01-29 14:36:06,308 INFO     device: cuda
2023-01-29 14:36:09,013 INFO     TabTab_v1(
  (cell_emb): Sequential(
    (0): Linear(in_features=1172, out_features=516, bias=True)
    (1): BatchNorm1d(516, eps=1e-05, momentum=0.1, affine=True, track_running_stats=True)
    (2): ReLU()
    (3): Dropout(p=0.1, inplace=False)
    (4): Linear(in_features=516, out_features=256, bias=True)
    (5): BatchNorm1d(256, eps=1e-05, momentum=0.1, affine=True, track_running_stats=True)
    (6): ReLU()
    (7): Dropout(p=0.1, inplace=False)
    (8): Linear(in_features=256, out_features=128, bias=True)
    (9): BatchNorm1d(128, eps=1e-05, momentum=0.1, affine=True, track_running_stats=True)
    (10): ReLU()
  )
  (drug_emb): Sequential(
    (0): Linear(in_features=256, out_features=128, bias=True)
    (1): BatchNorm1d(128, eps=1e-05, momentum=0.1, affine=True, track_running_stats=True)
    (2): ReLU()
    (3): Dropout(p=0.1, inplace=False)
    (4): Linear(in_features=128, out_features=128, bias=True)
    (5): BatchNorm1d(128, eps=1e-05, momentum=0.1, affine=True, track_running_stats=True)
    (6): ReLU()
  )
  (fcn): Sequential(
    (0): Linear(in_features=256, out_features=128, bias=True)
    (1): BatchNorm1d(128, eps=1e-05, momentum=0.1, affine=True, track_running_stats=True)
    (2): ELU(alpha=1.0)
    (3): Dropout(p=0.1, inplace=False)
    (4): Linear(in_features=128, out_features=64, bias=True)
    (5): BatchNorm1d(64, eps=1e-05, momentum=0.1, affine=True, track_running_stats=True)
    (6): ELU(alpha=1.0)
    (7): Dropout(p=0.1, inplace=False)
    (8): Linear(in_features=64, out_features=1, bias=True)
  )
)
2023-01-29 14:36:09,014 INFO     TRAINING the model
2023-01-29 14:38:15,501 INFO     Finished reading drug response matrix: (137835, 9)
2023-01-29 14:38:15,508 INFO     DRM Number of unique cell-lines: 856
2023-01-29 14:38:15,512 INFO     Finished reading cell-line gene matrix: (856, 1173)
2023-01-29 14:38:15,513 INFO     Finished reading drug SMILES matrix: (181, 257)
…
