…
2023-02-19 00:40:46,240 INFO     device: cuda
2023-02-19 00:40:46,240 INFO     



2023-02-19 00:40:46,240 INFO     conv_type: GCNConv
2023-02-19 00:40:46,240 INFO     conv_layers: 3
2023-02-19 00:40:46,240 INFO     global_pooling: max
2023-02-19 00:40:46,309 INFO     Number of GPUs: 1
2023-02-19 00:40:46,309 INFO     GPU Usage: 0
2023-02-19 00:40:48,750 INFO     GraphGraph(
  (cell_emb): Sequential(
    (0): GCNConv(4, 512)
    (1): ReLU(inplace=True)
    (2): GCNConv(512, 256)
    (3): ReLU(inplace=True)
    (4): GCNConv(256, 128)
    (5): ReLU(inplace=True)
    (6): <function global_max_pool at 0x7f4e4f8ce950>
    (7): Linear(in_features=128, out_features=128, bias=True)
    (8): BatchNorm1d(128, eps=1e-05, momentum=0.1, affine=True, track_running_stats=True)
    (9): ReLU()
    (10): Dropout(p=0.1, inplace=False)
    (11): Linear(in_features=128, out_features=128, bias=True)
    (12): ReLU()
  )
  (drug_emb): Sequential(
    (0): GINConv(nn=Sequential(
    (0): Linear(in_features=9, out_features=128, bias=True)
    (1): BatchNorm1d(128, eps=1e-05, momentum=0.1, affine=True, track_running_stats=True)
    (2): ReLU()
    (3): Linear(in_features=128, out_features=128, bias=True)
  ))
    (1): ReLU(inplace=True)
    (2): BatchNorm1d(128, eps=1e-05, momentum=0.1, affine=True, track_running_stats=True)
    (3): GINConv(nn=Sequential(
    (0): Linear(in_features=128, out_features=128, bias=True)
    (1): BatchNorm1d(128, eps=1e-05, momentum=0.1, affine=True, track_running_stats=True)
    (2): ReLU()
    (3): Linear(in_features=128, out_features=128, bias=True)
  ))
    (4): ReLU(inplace=True)
    (5): BatchNorm1d(128, eps=1e-05, momentum=0.1, affine=True, track_running_stats=True)
    (6): <function global_max_pool at 0x7f4e4f8ce950>
    (7): Linear(in_features=128, out_features=128, bias=True)
    (8): BatchNorm1d(128, eps=1e-05, momentum=0.1, affine=True, track_running_stats=True)
    (9): ReLU()
    (10): Dropout(p=0.1, inplace=False)
    (11): Linear(in_features=128, out_features=128, bias=True)
    (12): ReLU()
  )
  (fcn): Sequential(
    (0): Linear(in_features=256, out_features=128, bias=True)
    (1): BatchNorm1d(128, eps=1e-05, momentum=0.1, affine=True, track_running_stats=True)
    (2): ELU(alpha=1.0)
    (3): Dropout(p=0.1, inplace=False)
    (4): Linear(in_features=128, out_features=64, bias=True)
    (5): BatchNorm1d(64, eps=1e-05, momentum=0.1, affine=True, track_running_stats=True)
    (6): ELU(alpha=1.0)
    (7): Dropout(p=0.1, inplace=False)
    (8): Linear(in_features=64, out_features=1, bias=True)
  )
)
2023-02-19 00:40:48,750 INFO     TRAINING the model
2023-02-19 00:41:30,912 INFO     ===Epoch 001===
2023-02-19 00:41:30,912 INFO     Train | MSE: 5.81827 | RMSE: 2.41211 | MAE: 1.99172 | R2: 0.18038 | PCC: 0.77160 | SCC: 0.71224
2023-02-19 00:41:30,912 INFO     Test  | MSE: 4.42694 | RMSE: 2.10403 | MAE: 1.72861 | R2: 0.37714 | PCC: 0.82920 | SCC: 0.78789
…
