…
2023-02-05 21:23:25,153 INFO         Finished creating pytorch training datasets!
2023-02-05 21:23:25,153 INFO         Number of batches per dataset:
2023-02-05 21:23:25,153 INFO             train : 862
2023-02-05 21:23:25,153 INFO             test  : 216
2023-02-05 21:23:25,153 INFO     device: cuda
2023-02-05 21:23:25,211 INFO     Number of GPUs: 1
2023-02-05 21:23:25,211 INFO     GPU Usage: 0
2023-02-05 21:23:27,672 INFO     GraphTab(
  (cell_emb): Sequential(
    (0): GCNConv(4, 256)
    (1): ReLU(inplace=True)
    (2): Dropout(p=0.1, inplace=False)
    (3): GCNConv(256, 128)
    (4): ReLU(inplace=True)
    (5): <function global_max_pool at 0x7fc0a595b0a0>
    (6): Linear(in_features=128, out_features=128, bias=True)
    (7): BatchNorm1d(128, eps=1e-05, momentum=0.1, affine=True, track_running_stats=True)
    (8): ReLU()
    (9): Dropout(p=0.1, inplace=False)
    (10): Linear(in_features=128, out_features=128, bias=True)
    (11): ReLU()
  )
  (drug_emb): Sequential(
    (0): Linear(in_features=256, out_features=128, bias=True)
    (1): BatchNorm1d(128, eps=1e-05, momentum=0.1, affine=True, track_running_stats=True)
    (2): ReLU()
    (3): Dropout(p=0.1, inplace=False)
    (4): Linear(in_features=128, out_features=128, bias=True)
    (5): BatchNorm1d(128, eps=1e-05, momentum=0.1, affine=True, track_running_stats=True)
    (6): ReLU()
  )
  (fcn): Sequential(
    (0): Linear(in_features=256, out_features=128, bias=True)
    (1): BatchNorm1d(128, eps=1e-05, momentum=0.1, affine=True, track_running_stats=True)
    (2): ELU(alpha=1.0)
    (3): Dropout(p=0.1, inplace=False)
    (4): Linear(in_features=128, out_features=64, bias=True)
    (5): BatchNorm1d(64, eps=1e-05, momentum=0.1, affine=True, track_running_stats=True)
    (6): ELU(alpha=1.0)
    (7): Dropout(p=0.1, inplace=False)
    (8): Linear(in_features=64, out_features=1, bias=True)
  )
)
2023-02-05 21:23:27,672 INFO     TRAINING the model
2023-02-05 21:24:38,466 INFO     ===Epoch 001===
2023-02-05 21:24:38,466 INFO     Train | MSE: 8.34297
2023-02-05 21:24:38,466 INFO     Test  | MSE: 4.53181
2023-02-05 21:25:47,577 INFO     ===Epoch 002===
2023-02-05 21:25:47,577 INFO     Train | MSE: 3.63988
2023-02-05 21:25:47,577 INFO     Test  | MSE: 2.52587
…
