…
2023-01-19 23:00:45,722 INFO     # genes        : 293
2023-01-19 23:00:45,723 INFO     Finished creating pytorch training datasets!
2023-01-19 23:00:45,723 INFO     Number of batches per dataset:
2023-01-19 23:00:45,723 INFO       train : 862
2023-01-19 23:00:45,723 INFO       test  : 108
2023-01-19 23:00:45,723 INFO       val   : 108
2023-01-19 23:00:45,767 INFO     device: cuda
2023-01-19 23:00:48,911 INFO     GraphTab_v1(
  (cell_emb): Sequential(
    (0): GCNConv(4, 256)
    (1): ReLU(inplace=True)
    (2): GCNConv(256, 256)
    (3): ReLU(inplace=True)
    (4): <function global_mean_pool at 0x7fbed7518b80>
    (5): Linear(in_features=256, out_features=128, bias=True)
    (6): BatchNorm1d(128, eps=1e-05, momentum=0.1, affine=True, track_running_stats=True)
    (7): ReLU()
    (8): Dropout(p=0.1, inplace=False)
    (9): Linear(in_features=128, out_features=128, bias=True)
    (10): ReLU()
  )
  (drug_emb): Sequential(
    (0): Linear(in_features=256, out_features=128, bias=True)
    (1): BatchNorm1d(128, eps=1e-05, momentum=0.1, affine=True, track_running_stats=True)
    (2): ReLU()
    (3): Dropout(p=0.1, inplace=False)
    (4): Linear(in_features=128, out_features=128, bias=True)
    (5): BatchNorm1d(128, eps=1e-05, momentum=0.1, affine=True, track_running_stats=True)
    (6): ReLU()
  )
  (fcn): Sequential(
    (0): Linear(in_features=256, out_features=128, bias=True)
    (1): BatchNorm1d(128, eps=1e-05, momentum=0.1, affine=True, track_running_stats=True)
    (2): ELU(alpha=1.0)
    (3): Dropout(p=0.1, inplace=False)
    (4): Linear(in_features=128, out_features=64, bias=True)
    (5): BatchNorm1d(64, eps=1e-05, momentum=0.1, affine=True, track_running_stats=True)
    (6): ELU(alpha=1.0)
    (7): Dropout(p=0.1, inplace=False)
    (8): Linear(in_features=64, out_features=1, bias=True)
  )
)
2023-01-19 23:01:52,717 INFO     ===Epoch 001===
2023-01-19 23:01:52,717 INFO     Train      | MSE: 6.91574
2023-01-19 23:01:52,718 INFO     Validation | MSE: 3.69779
2023-01-19 23:17:29,095 INFO     Finished reading drug response matrix: (137835, 9)
2023-01-19 23:17:29,102 INFO     DRM Number of unique cell-lines: 856
2023-01-19 23:17:29,360 INFO     Finished reading cell-line graphs: Data(x=[293, 4], edge_index=[2, 874])
…
