…
2023-03-05 17:14:06,786 INFO     # cell-lines   : 856
2023-03-05 17:14:06,799 INFO     # drugs        : 181
2023-03-05 17:14:06,800 INFO     # genes        : 458
2023-03-05 17:14:06,800 INFO         Finished creating pytorch training datasets!
2023-03-05 17:14:06,800 INFO         Number of batches per dataset:
2023-03-05 17:14:06,800 INFO             train : 862
2023-03-05 17:14:06,800 INFO             test  : 216
2023-03-05 17:14:06,800 INFO     device: cuda
2023-03-05 17:14:06,833 INFO     Number of GPUs: 1
2023-03-05 17:14:06,833 INFO     GPU Usage: 0
2023-03-05 17:14:09,234 INFO     TabTab(
  (cell_emb): Sequential(
    (0): Linear(in_features=1832, out_features=516, bias=True)
    (1): BatchNorm1d(516, eps=1e-05, momentum=0.1, affine=True, track_running_stats=True)
    (2): ReLU()
    (3): Dropout(p=0.2, inplace=False)
    (4): Linear(in_features=516, out_features=256, bias=True)
    (5): BatchNorm1d(256, eps=1e-05, momentum=0.1, affine=True, track_running_stats=True)
    (6): ReLU()
    (7): Dropout(p=0.2, inplace=False)
    (8): Linear(in_features=256, out_features=128, bias=True)
    (9): BatchNorm1d(128, eps=1e-05, momentum=0.1, affine=True, track_running_stats=True)
    (10): ReLU()
  )
  (drug_emb): Sequential(
    (0): Linear(in_features=256, out_features=128, bias=True)
    (1): BatchNorm1d(128, eps=1e-05, momentum=0.1, affine=True, track_running_stats=True)
    (2): ReLU()
    (3): Dropout(p=0.2, inplace=False)
    (4): Linear(in_features=128, out_features=128, bias=True)
    (5): BatchNorm1d(128, eps=1e-05, momentum=0.1, affine=True, track_running_stats=True)
    (6): ReLU()
  )
  (fcn): Sequential(
    (0): Linear(in_features=256, out_features=128, bias=True)
    (1): BatchNorm1d(128, eps=1e-05, momentum=0.1, affine=True, track_running_stats=True)
    (2): ELU(alpha=1.0)
    (3): Dropout(p=0.2, inplace=False)
    (4): Linear(in_features=128, out_features=64, bias=True)
    (5): BatchNorm1d(64, eps=1e-05, momentum=0.1, affine=True, track_running_stats=True)
    (6): ELU(alpha=1.0)
    (7): Dropout(p=0.2, inplace=False)
    (8): Linear(in_features=64, out_features=1, bias=True)
  )
)
2023-03-05 17:14:09,235 INFO     TRAINING the model
2023-03-05 17:14:30,627 INFO     Engine run starting with max_epochs=1.
2023-03-05 17:14:37,750 INFO     Epoch[1] Complete. Time taken: 00:00:06.898
2023-03-05 17:14:37,751 INFO     Engine run complete. Time taken: 00:00:07.123
2023-03-05 17:14:37,838 INFO     =====Epoch 1
2023-03-05 17:14:37,839 INFO     Train | MSE: 6.36317
…
