…
2023-02-05 15:58:25,646 INFO     # cell-lines   : 856
2023-02-05 15:58:25,659 INFO     # drugs        : 181
2023-02-05 15:58:25,659 INFO     # genes        : 293
2023-02-05 15:58:25,660 INFO         Finished creating pytorch training datasets!
2023-02-05 15:58:25,660 INFO         Number of batches per dataset:
2023-02-05 15:58:25,660 INFO             train : 862
2023-02-05 15:58:25,660 INFO             test  : 216
2023-02-05 15:58:25,660 INFO     device: cuda
2023-02-05 15:58:25,690 INFO     Number of GPUs: 1
2023-02-05 15:58:25,690 INFO     GPU Usage: 0
2023-02-05 15:58:28,153 INFO     TabTab(
  (cell_emb): Sequential(
    (0): Linear(in_features=1172, out_features=516, bias=True)
    (1): BatchNorm1d(516, eps=1e-05, momentum=0.1, affine=True, track_running_stats=True)
    (2): ReLU()
    (3): Dropout(p=0.1, inplace=False)
    (4): Linear(in_features=516, out_features=256, bias=True)
    (5): BatchNorm1d(256, eps=1e-05, momentum=0.1, affine=True, track_running_stats=True)
    (6): ReLU()
    (7): Dropout(p=0.1, inplace=False)
    (8): Linear(in_features=256, out_features=128, bias=True)
    (9): BatchNorm1d(128, eps=1e-05, momentum=0.1, affine=True, track_running_stats=True)
    (10): ReLU()
  )
  (drug_emb): Sequential(
    (0): Linear(in_features=256, out_features=128, bias=True)
    (1): BatchNorm1d(128, eps=1e-05, momentum=0.1, affine=True, track_running_stats=True)
    (2): ReLU()
    (3): Dropout(p=0.1, inplace=False)
    (4): Linear(in_features=128, out_features=128, bias=True)
    (5): BatchNorm1d(128, eps=1e-05, momentum=0.1, affine=True, track_running_stats=True)
    (6): ReLU()
  )
  (fcn): Sequential(
    (0): Linear(in_features=256, out_features=128, bias=True)
    (1): BatchNorm1d(128, eps=1e-05, momentum=0.1, affine=True, track_running_stats=True)
    (2): ELU(alpha=1.0)
    (3): Dropout(p=0.1, inplace=False)
    (4): Linear(in_features=128, out_features=64, bias=True)
    (5): BatchNorm1d(64, eps=1e-05, momentum=0.1, affine=True, track_running_stats=True)
    (6): ELU(alpha=1.0)
    (7): Dropout(p=0.1, inplace=False)
    (8): Linear(in_features=64, out_features=1, bias=True)
  )
)
2023-02-05 15:58:28,153 INFO     TRAINING the model
2023-02-05 15:58:57,144 INFO     Engine run starting with max_epochs=1.
2023-02-05 15:59:01,848 INFO     Epoch[1] Complete. Time taken: 00:00:04.460
2023-02-05 15:59:01,849 INFO     Engine run complete. Time taken: 00:00:04.705
2023-02-05 15:59:01,923 INFO     =====Epoch 1
2023-02-05 15:59:01,924 INFO     Train | MSE: 6.37474
…
