…
2023-04-10 17:30:58,622 INFO     # drugs        : 181
2023-04-10 17:30:58,622 INFO     # genes        : 293
2023-04-10 17:30:58,623 INFO         Finished creating pytorch training datasets!
2023-04-10 17:30:58,623 INFO         Number of batches per dataset:
2023-04-10 17:30:58,623 INFO             train : 862
2023-04-10 17:30:58,623 INFO             test  : 216
2023-04-10 17:30:58,623 INFO     device: cuda
2023-04-10 17:30:58,661 INFO     Number of GPUs: 1
2023-04-10 17:30:58,661 INFO     GPU Usage: 0
2023-04-10 17:31:00,993 INFO     GraphGraph(
  (cell_emb): Sequential(
    (0): GCNConv(1, 128)
    (1): BatchNorm1d(128, eps=1e-05, momentum=0.1, affine=True, track_running_stats=True)
    (2): ReLU(inplace=True)
    (3): GCNConv(128, 128)
    (4): BatchNorm1d(128, eps=1e-05, momentum=0.1, affine=True, track_running_stats=True)
    (5): <function global_max_pool at 0x7f275d43caf0>
    (6): Linear(in_features=128, out_features=128, bias=True)
    (7): BatchNorm1d(128, eps=1e-05, momentum=0.1, affine=True, track_running_stats=True)
    (8): ReLU()
    (9): Dropout(p=0.1, inplace=False)
    (10): Linear(in_features=128, out_features=128, bias=True)
    (11): ReLU()
  )
  (drug_emb): Sequential(
    (0): GINConv(nn=Sequential(
    (0): Linear(in_features=9, out_features=128, bias=True)
    (1): BatchNorm1d(128, eps=1e-05, momentum=0.1, affine=True, track_running_stats=True)
    (2): ReLU()
    (3): Linear(in_features=128, out_features=128, bias=True)
  ))
    (1): ReLU(inplace=True)
    (2): BatchNorm1d(128, eps=1e-05, momentum=0.1, affine=True, track_running_stats=True)
    (3): GINConv(nn=Sequential(
    (0): Linear(in_features=128, out_features=128, bias=True)
    (1): BatchNorm1d(128, eps=1e-05, momentum=0.1, affine=True, track_running_stats=True)
    (2): ReLU()
    (3): Linear(in_features=128, out_features=128, bias=True)
  ))
    (4): ReLU(inplace=True)
    (5): BatchNorm1d(128, eps=1e-05, momentum=0.1, affine=True, track_running_stats=True)
    (6): <function global_max_pool at 0x7f275d43caf0>
    (7): Linear(in_features=128, out_features=128, bias=True)
    (8): BatchNorm1d(128, eps=1e-05, momentum=0.1, affine=True, track_running_stats=True)
    (9): ReLU()
    (10): Dropout(p=0.1, inplace=False)
    (11): Linear(in_features=128, out_features=128, bias=True)
    (12): ReLU()
  )
  (fcn): Sequential(
    (0): Linear(in_features=256, out_features=128, bias=True)
    (1): BatchNorm1d(128, eps=1e-05, momentum=0.1, affine=True, track_running_stats=True)
    (2): ELU(alpha=1.0)
    (3): Dropout(p=0.1, inplace=False)
    (4): Linear(in_features=128, out_features=64, bias=True)
    (5): BatchNorm1d(64, eps=1e-05, momentum=0.1, affine=True, track_running_stats=True)
    (6): ELU(alpha=1.0)
    (7): Dropout(p=0.1, inplace=False)
    (8): Linear(in_features=64, out_features=1, bias=True)
  )
)
2023-04-10 17:31:00,994 INFO     TRAINING the model
2023-04-10 17:31:33,292 INFO     ===Epoch 001===
2023-04-10 17:31:33,293 INFO     Train | MSE: 6.33166 | RMSE: 2.51628 | MAE: 2.09303 | R2: 0.10816 | PCC: 0.75660 | SCC: 0.69368
2023-04-10 17:31:33,293 INFO     Test  | MSE: 4.06127 | RMSE: 2.01526 | MAE: 1.62840 | R2: 0.42811 | PCC: 0.81198 | SCC: 0.76963
…
