…
2023-04-08 16:37:49,742 INFO     # drugs        : 181
2023-04-08 16:37:49,742 INFO     # genes        : 293
2023-04-08 16:37:49,742 INFO         Finished creating pytorch training datasets!
2023-04-08 16:37:49,742 INFO         Number of batches per dataset:
2023-04-08 16:37:49,742 INFO             train : 862
2023-04-08 16:37:49,742 INFO             test  : 216
2023-04-08 16:37:49,742 INFO     device: cuda
2023-04-08 16:37:49,794 INFO     Number of GPUs: 1
2023-04-08 16:37:49,794 INFO     GPU Usage: 0
2023-04-08 16:37:52,077 INFO     GraphTab(
  (cell_emb): Sequential(
    (0): GCNConv(4, 128)
    (1): BatchNorm1d(128, eps=1e-05, momentum=0.1, affine=True, track_running_stats=True)
    (2): ReLU(inplace=True)
    (3): GCNConv(128, 128)
    (4): BatchNorm1d(128, eps=1e-05, momentum=0.1, affine=True, track_running_stats=True)
    (5): ReLU(inplace=True)
    (6): GCNConv(128, 128)
    (7): BatchNorm1d(128, eps=1e-05, momentum=0.1, affine=True, track_running_stats=True)
    (8): <function global_max_pool at 0x7f0edf534c10>
    (9): Linear(in_features=128, out_features=128, bias=True)
    (10): BatchNorm1d(128, eps=1e-05, momentum=0.1, affine=True, track_running_stats=True)
    (11): ReLU()
    (12): Dropout(p=0.1, inplace=False)
    (13): Linear(in_features=128, out_features=128, bias=True)
    (14): ReLU()
  )
  (drug_emb): Sequential(
    (0): Linear(in_features=256, out_features=128, bias=True)
    (1): BatchNorm1d(128, eps=1e-05, momentum=0.1, affine=True, track_running_stats=True)
    (2): ReLU()
    (3): Dropout(p=0.1, inplace=False)
    (4): Linear(in_features=128, out_features=128, bias=True)
    (5): BatchNorm1d(128, eps=1e-05, momentum=0.1, affine=True, track_running_stats=True)
    (6): ReLU()
  )
  (fcn): Sequential(
    (0): Linear(in_features=256, out_features=128, bias=True)
    (1): BatchNorm1d(128, eps=1e-05, momentum=0.1, affine=True, track_running_stats=True)
    (2): ELU(alpha=1.0)
    (3): Dropout(p=0.1, inplace=False)
    (4): Linear(in_features=128, out_features=64, bias=True)
    (5): BatchNorm1d(64, eps=1e-05, momentum=0.1, affine=True, track_running_stats=True)
    (6): ELU(alpha=1.0)
    (7): Dropout(p=0.1, inplace=False)
    (8): Linear(in_features=64, out_features=1, bias=True)
  )
)
2023-04-08 16:37:52,077 INFO     TRAINING the model
2023-04-08 16:38:44,005 INFO     ===Epoch 001===
2023-04-08 16:38:44,005 INFO     Train | MSE: 6.67030 | RMSE: 2.58269 | MAE: 2.19112 | R2: 0.06038 | PCC: 0.78879 | SCC: 0.74093
2023-04-08 16:38:44,006 INFO     Test  | MSE: 3.33101 | RMSE: 1.82511 | MAE: 1.49109 | R2: 0.53127 | PCC: 0.86609 | SCC: 0.84064
…
