…
2023-04-08 23:30:33,845 INFO         Number of batches per dataset:
2023-04-08 23:30:33,845 INFO             train : 862
2023-04-08 23:30:33,846 INFO             test  : 216
2023-04-08 23:30:33,846 INFO     device: cuda
2023-04-08 23:30:33,846 INFO     



2023-04-08 23:30:33,846 INFO     conv_type: GCNConv
2023-04-08 23:30:33,846 INFO     conv_layers: 2
2023-04-08 23:30:33,846 INFO     global_pooling: mean
2023-04-08 23:30:33,897 INFO     Number of GPUs: 1
2023-04-08 23:30:33,897 INFO     GPU Usage: 0
2023-04-08 23:30:36,212 INFO     GraphTab(
  (cell_emb): Sequential(
    (0): GCNConv(4, 128)
    (1): BatchNorm1d(128, eps=1e-05, momentum=0.1, affine=True, track_running_stats=True)
    (2): ReLU(inplace=True)
    (3): GCNConv(128, 128)
    (4): BatchNorm1d(128, eps=1e-05, momentum=0.1, affine=True, track_running_stats=True)
    (5): <function global_mean_pool at 0x7f49c1b60af0>
    (6): Linear(in_features=128, out_features=128, bias=True)
    (7): BatchNorm1d(128, eps=1e-05, momentum=0.1, affine=True, track_running_stats=True)
    (8): ReLU()
    (9): Dropout(p=0.1, inplace=False)
    (10): Linear(in_features=128, out_features=128, bias=True)
    (11): ReLU()
  )
  (drug_emb): Sequential(
    (0): Linear(in_features=256, out_features=128, bias=True)
    (1): BatchNorm1d(128, eps=1e-05, momentum=0.1, affine=True, track_running_stats=True)
    (2): ReLU()
    (3): Dropout(p=0.1, inplace=False)
    (4): Linear(in_features=128, out_features=128, bias=True)
    (5): BatchNorm1d(128, eps=1e-05, momentum=0.1, affine=True, track_running_stats=True)
    (6): ReLU()
  )
  (fcn): Sequential(
    (0): Linear(in_features=256, out_features=128, bias=True)
    (1): BatchNorm1d(128, eps=1e-05, momentum=0.1, affine=True, track_running_stats=True)
    (2): ELU(alpha=1.0)
    (3): Dropout(p=0.1, inplace=False)
    (4): Linear(in_features=128, out_features=64, bias=True)
    (5): BatchNorm1d(64, eps=1e-05, momentum=0.1, affine=True, track_running_stats=True)
    (6): ELU(alpha=1.0)
    (7): Dropout(p=0.1, inplace=False)
    (8): Linear(in_features=64, out_features=1, bias=True)
  )
)
2023-04-08 23:30:36,213 INFO     TRAINING the model
2023-04-08 23:31:25,072 INFO     ===Epoch 001===
2023-04-08 23:31:25,072 INFO     Train | MSE: 5.56942 | RMSE: 2.35996 | MAE: 1.94490 | R2: 0.21540 | PCC: 0.77304 | SCC: 0.72112
2023-04-08 23:31:25,073 INFO     Test  | MSE: 2.82161 | RMSE: 1.67977 | MAE: 1.30672 | R2: 0.60262 | PCC: 0.83969 | SCC: 0.80572
…
2023-04-09 01:38:03,024 INFO     Train | MSE: 1.27830 | RMSE: 1.1306192874908447 | MAE: 0.8575495481491089 | R2: 0.8200037603967396 | PCC: 0.9055432741051053 | SCC: 0.8783522566603836
2023-04-09 01:38:03,024 INFO     Test  | MSE: 1.22511 | RMSE: 1.1068460941314697 | MAE: 0.8203732371330261 | R2: 0.8274568885971784 | PCC: 0.9098667118778427 | SCC: 0.8871386687739707
2023-04-09 01:38:04,100 INFO     



2023-04-09 01:38:04,100 INFO     conv_type: GCNConv
2023-04-09 01:38:04,100 INFO     conv_layers: 3
2023-04-09 01:38:04,100 INFO     global_pooling: mean
2023-04-09 01:38:04,110 INFO     Number of GPUs: 1
2023-04-09 01:38:04,110 INFO     GPU Usage: 310094336
2023-04-09 01:38:04,113 INFO     GraphTab(
  (cell_emb): Sequential(
    (0): GCNConv(4, 128)
    (1): BatchNorm1d(128, eps=1e-05, momentum=0.1, affine=True, track_running_stats=True)
    (2): ReLU(inplace=True)
    (3): GCNConv(128, 128)
    (4): BatchNorm1d(128, eps=1e-05, momentum=0.1, affine=True, track_running_stats=True)
    (5): ReLU(inplace=True)
    (6): GCNConv(128, 128)
    (7): BatchNorm1d(128, eps=1e-05, momentum=0.1, affine=True, track_running_stats=True)
    (8): <function global_mean_pool at 0x7f49c1b60af0>
    (9): Linear(in_features=128, out_features=128, bias=True)
    (10): BatchNorm1d(128, eps=1e-05, momentum=0.1, affine=True, track_running_stats=True)
    (11): ReLU()
    (12): Dropout(p=0.1, inplace=False)
    (13): Linear(in_features=128, out_features=128, bias=True)
    (14): ReLU()
  )
  (drug_emb): Sequential(
    (0): Linear(in_features=256, out_features=128, bias=True)
    (1): BatchNorm1d(128, eps=1e-05, momentum=0.1, affine=True, track_running_stats=True)
    (2): ReLU()
    (3): Dropout(p=0.1, inplace=False)
    (4): Linear(in_features=128, out_features=128, bias=True)
    (5): BatchNorm1d(128, eps=1e-05, momentum=0.1, affine=True, track_running_stats=True)
    (6): ReLU()
  )
  (fcn): Sequential(
    (0): Linear(in_features=256, out_features=128, bias=True)
    (1): BatchNorm1d(128, eps=1e-05, momentum=0.1, affine=True, track_running_stats=True)
    (2): ELU(alpha=1.0)
    (3): Dropout(p=0.1, inplace=False)
    (4): Linear(in_features=128, out_features=64, bias=True)
    (5): BatchNorm1d(64, eps=1e-05, momentum=0.1, affine=True, track_running_stats=True)
    (6): ELU(alpha=1.0)
    (7): Dropout(p=0.1, inplace=False)
    (8): Linear(in_features=64, out_features=1, bias=True)
  )
)
2023-04-09 01:38:04,113 INFO     TRAINING the model
2023-04-09 01:39:04,535 INFO     ===Epoch 001===
2023-04-09 01:39:04,536 INFO     Train | MSE: 6.85801 | RMSE: 2.61878 | MAE: 2.21547 | R2: 0.03396 | PCC: 0.77695 | SCC: 0.72446
2023-04-09 01:39:04,536 INFO     Test  | MSE: 3.41497 | RMSE: 1.84796 | MAE: 1.47174 | R2: 0.51953 | PCC: 0.84341 | SCC: 0.81246
…
