…
2023-04-10 12:13:50,196 INFO     # cell-lines   : 856
2023-04-10 12:13:50,210 INFO     # drugs        : 181
2023-04-10 12:13:50,211 INFO     # genes        : 293
2023-04-10 12:13:50,211 INFO         Finished creating pytorch training datasets!
2023-04-10 12:13:50,211 INFO         Number of batches per dataset:
2023-04-10 12:13:50,211 INFO             train : 862
2023-04-10 12:13:50,211 INFO             test  : 216
2023-04-10 12:13:50,211 INFO     device: cuda
2023-04-10 12:13:50,235 INFO     Number of GPUs: 1
2023-04-10 12:13:50,235 INFO     GPU Usage: 0
2023-04-10 12:13:52,621 INFO     TabTab(
  (cell_emb): Sequential(
    (0): Linear(in_features=1172, out_features=128, bias=True)
    (1): BatchNorm1d(128, eps=1e-05, momentum=0.1, affine=True, track_running_stats=True)
    (2): ReLU()
    (3): Dropout(p=0.1, inplace=False)
    (4): Linear(in_features=128, out_features=128, bias=True)
    (5): BatchNorm1d(128, eps=1e-05, momentum=0.1, affine=True, track_running_stats=True)
    (6): ReLU()
    (7): Dropout(p=0.1, inplace=False)
    (8): Linear(in_features=128, out_features=128, bias=True)
    (9): BatchNorm1d(128, eps=1e-05, momentum=0.1, affine=True, track_running_stats=True)
    (10): ReLU()
  )
  (drug_emb): Sequential(
    (0): Linear(in_features=256, out_features=128, bias=True)
    (1): BatchNorm1d(128, eps=1e-05, momentum=0.1, affine=True, track_running_stats=True)
    (2): ReLU()
    (3): Dropout(p=0.1, inplace=False)
    (4): Linear(in_features=128, out_features=128, bias=True)
    (5): BatchNorm1d(128, eps=1e-05, momentum=0.1, affine=True, track_running_stats=True)
    (6): ReLU()
  )
  (fcn): Sequential(
    (0): Linear(in_features=256, out_features=128, bias=True)
    (1): BatchNorm1d(128, eps=1e-05, momentum=0.1, affine=True, track_running_stats=True)
    (2): ELU(alpha=1.0)
    (3): Dropout(p=0.1, inplace=False)
    (4): Linear(in_features=128, out_features=64, bias=True)
    (5): BatchNorm1d(64, eps=1e-05, momentum=0.1, affine=True, track_running_stats=True)
    (6): ELU(alpha=1.0)
    (7): Dropout(p=0.1, inplace=False)
    (8): Linear(in_features=64, out_features=1, bias=True)
  )
)
2023-04-10 12:13:52,621 INFO     TRAINING the model
2023-04-10 12:14:08,440 INFO     Engine run starting with max_epochs=1.
2023-04-10 12:14:14,633 INFO     Epoch[1] Complete. Time taken: 00:00:05.851
2023-04-10 12:14:14,636 INFO     Engine run complete. Time taken: 00:00:06.195
2023-04-10 12:14:14,750 INFO     ===Epoch 001===
2023-04-10 12:14:14,750 INFO     Train | MSE: 5.87102 | RMSE: 2.42302 | MAE: 2.03886 | R2: 0.17312 | PCC: 0.79973 | SCC: 0.75515
…
