…
2023-04-08 23:12:53,174 INFO     # drugs        : 181
2023-04-08 23:12:53,175 INFO     # genes        : 293
2023-04-08 23:12:53,175 INFO         Finished creating pytorch training datasets!
2023-04-08 23:12:53,175 INFO         Number of batches per dataset:
2023-04-08 23:12:53,175 INFO             train : 862
2023-04-08 23:12:53,175 INFO             test  : 216
2023-04-08 23:12:53,175 INFO     device: cuda
2023-04-08 23:12:53,225 INFO     Number of GPUs: 1
2023-04-08 23:12:53,225 INFO     GPU Usage: 0
2023-04-08 23:12:55,549 INFO     GraphTab(
  (cell_emb): Sequential(
    (0): GATConv(4, 128, heads=1)
    (1): BatchNorm1d(128, eps=1e-05, momentum=0.1, affine=True, track_running_stats=True)
    (2): ReLU(inplace=True)
    (3): GATConv(128, 128, heads=1)
    (4): BatchNorm1d(128, eps=1e-05, momentum=0.1, affine=True, track_running_stats=True)
    (5): <function global_max_pool at 0x7f42db20cc10>
    (6): Linear(in_features=128, out_features=128, bias=True)
    (7): BatchNorm1d(128, eps=1e-05, momentum=0.1, affine=True, track_running_stats=True)
    (8): ReLU()
    (9): Dropout(p=0.1, inplace=False)
    (10): Linear(in_features=128, out_features=128, bias=True)
    (11): ReLU()
  )
  (drug_emb): Sequential(
    (0): Linear(in_features=256, out_features=128, bias=True)
    (1): BatchNorm1d(128, eps=1e-05, momentum=0.1, affine=True, track_running_stats=True)
    (2): ReLU()
    (3): Dropout(p=0.1, inplace=False)
    (4): Linear(in_features=128, out_features=128, bias=True)
    (5): BatchNorm1d(128, eps=1e-05, momentum=0.1, affine=True, track_running_stats=True)
    (6): ReLU()
  )
  (fcn): Sequential(
    (0): Linear(in_features=256, out_features=128, bias=True)
    (1): BatchNorm1d(128, eps=1e-05, momentum=0.1, affine=True, track_running_stats=True)
    (2): ELU(alpha=1.0)
    (3): Dropout(p=0.1, inplace=False)
    (4): Linear(in_features=128, out_features=64, bias=True)
    (5): BatchNorm1d(64, eps=1e-05, momentum=0.1, affine=True, track_running_stats=True)
    (6): ELU(alpha=1.0)
    (7): Dropout(p=0.1, inplace=False)
    (8): Linear(in_features=64, out_features=1, bias=True)
  )
)
2023-04-08 23:12:55,550 INFO     TRAINING the model
2023-04-08 23:13:46,483 INFO     ===Epoch 001===
2023-04-08 23:13:46,483 INFO     Train | MSE: 6.20681 | RMSE: 2.49135 | MAE: 2.08523 | R2: 0.12572 | PCC: 0.77960 | SCC: 0.72947
2023-04-08 23:13:46,483 INFO     Test  | MSE: 2.85422 | RMSE: 1.68944 | MAE: 1.33374 | R2: 0.59815 | PCC: 0.85809 | SCC: 0.83196
…
