…
2023-04-08 10:32:58,023 INFO     # drugs        : 181
2023-04-08 10:32:58,023 INFO     # genes        : 293
2023-04-08 10:32:58,024 INFO         Finished creating pytorch training datasets!
2023-04-08 10:32:58,024 INFO         Number of batches per dataset:
2023-04-08 10:32:58,024 INFO             train : 862
2023-04-08 10:32:58,024 INFO             test  : 216
2023-04-08 10:32:58,024 INFO     device: cuda
2023-04-08 10:32:58,073 INFO     Number of GPUs: 1
2023-04-08 10:32:58,073 INFO     GPU Usage: 0
2023-04-08 10:33:00,355 INFO     GraphTab(
  (cell_emb): Sequential(
    (0): GCNConv(4, 128)
    (1): BatchNorm1d(128, eps=1e-05, momentum=0.1, affine=True, track_running_stats=True)
    (2): ReLU(inplace=True)
    (3): GCNConv(128, 128)
    (4): BatchNorm1d(128, eps=1e-05, momentum=0.1, affine=True, track_running_stats=True)
    (5): <function global_max_pool at 0x7fc5a5f54c10>
    (6): Linear(in_features=128, out_features=128, bias=True)
    (7): BatchNorm1d(128, eps=1e-05, momentum=0.1, affine=True, track_running_stats=True)
    (8): ReLU()
    (9): Dropout(p=0.1, inplace=False)
    (10): Linear(in_features=128, out_features=128, bias=True)
    (11): ReLU()
  )
  (drug_emb): Sequential(
    (0): Linear(in_features=256, out_features=128, bias=True)
    (1): BatchNorm1d(128, eps=1e-05, momentum=0.1, affine=True, track_running_stats=True)
    (2): ReLU()
    (3): Dropout(p=0.1, inplace=False)
    (4): Linear(in_features=128, out_features=128, bias=True)
    (5): BatchNorm1d(128, eps=1e-05, momentum=0.1, affine=True, track_running_stats=True)
    (6): ReLU()
  )
  (fcn): Sequential(
    (0): Linear(in_features=256, out_features=128, bias=True)
    (1): BatchNorm1d(128, eps=1e-05, momentum=0.1, affine=True, track_running_stats=True)
    (2): ELU(alpha=1.0)
    (3): Dropout(p=0.1, inplace=False)
    (4): Linear(in_features=128, out_features=64, bias=True)
    (5): BatchNorm1d(64, eps=1e-05, momentum=0.1, affine=True, track_running_stats=True)
    (6): ELU(alpha=1.0)
    (7): Dropout(p=0.1, inplace=False)
    (8): Linear(in_features=64, out_features=1, bias=True)
  )
)
2023-04-08 10:33:00,355 INFO     TRAINING the model
2023-04-08 10:33:48,617 INFO     ===Epoch 001===
2023-04-08 10:33:48,617 INFO     Train | MSE: 5.44928
2023-04-08 10:33:48,617 INFO     Test  | MSE: 2.79868
2023-04-08 10:34:36,979 INFO     ===Epoch 002===
2023-04-08 10:34:36,980 INFO     Train | MSE: 2.24903
2023-04-08 10:34:36,980 INFO     Test  | MSE: 1.66995
…
