…
2023-04-09 15:45:32,793 INFO         Number of batches per dataset:
2023-04-09 15:45:32,793 INFO             train : 862
2023-04-09 15:45:32,793 INFO             test  : 216
2023-04-09 15:45:32,793 INFO     device: cuda
2023-04-09 15:45:32,793 INFO     



2023-04-09 15:45:32,793 INFO     conv_type: GCNConv
2023-04-09 15:45:32,793 INFO     conv_layers: 2
2023-04-09 15:45:32,793 INFO     global_pooling: max
2023-04-09 15:45:32,848 INFO     Number of GPUs: 1
2023-04-09 15:45:32,848 INFO     GPU Usage: 0
2023-04-09 15:45:35,159 INFO     GraphGraph(
  (cell_emb): Sequential(
    (0): GCNConv(4, 128)
    (1): BatchNorm1d(128, eps=1e-05, momentum=0.1, affine=True, track_running_stats=True)
    (2): ReLU(inplace=True)
    (3): GCNConv(128, 128)
    (4): BatchNorm1d(128, eps=1e-05, momentum=0.1, affine=True, track_running_stats=True)
    (5): <function global_max_pool at 0x7f98a01f8b80>
    (6): Linear(in_features=128, out_features=128, bias=True)
    (7): BatchNorm1d(128, eps=1e-05, momentum=0.1, affine=True, track_running_stats=True)
    (8): ReLU()
    (9): Dropout(p=0.1, inplace=False)
    (10): Linear(in_features=128, out_features=128, bias=True)
    (11): ReLU()
  )
  (drug_emb): Sequential(
    (0): GINConv(nn=Sequential(
    (0): Linear(in_features=9, out_features=128, bias=True)
    (1): BatchNorm1d(128, eps=1e-05, momentum=0.1, affine=True, track_running_stats=True)
    (2): ReLU()
    (3): Linear(in_features=128, out_features=128, bias=True)
  ))
    (1): ReLU(inplace=True)
    (2): BatchNorm1d(128, eps=1e-05, momentum=0.1, affine=True, track_running_stats=True)
    (3): GINConv(nn=Sequential(
    (0): Linear(in_features=128, out_features=128, bias=True)
    (1): BatchNorm1d(128, eps=1e-05, momentum=0.1, affine=True, track_running_stats=True)
    (2): ReLU()
    (3): Linear(in_features=128, out_features=128, bias=True)
  ))
    (4): ReLU(inplace=True)
    (5): BatchNorm1d(128, eps=1e-05, momentum=0.1, affine=True, track_running_stats=True)
    (6): <function global_max_pool at 0x7f98a01f8b80>
    (7): Linear(in_features=128, out_features=128, bias=True)
    (8): BatchNorm1d(128, eps=1e-05, momentum=0.1, affine=True, track_running_stats=True)
    (9): ReLU()
    (10): Dropout(p=0.1, inplace=False)
    (11): Linear(in_features=128, out_features=128, bias=True)
    (12): ReLU()
  )
  (fcn): Sequential(
    (0): Linear(in_features=256, out_features=128, bias=True)
    (1): BatchNorm1d(128, eps=1e-05, momentum=0.1, affine=True, track_running_stats=True)
    (2): ELU(alpha=1.0)
    (3): Dropout(p=0.1, inplace=False)
    (4): Linear(in_features=128, out_features=64, bias=True)
    (5): BatchNorm1d(64, eps=1e-05, momentum=0.1, affine=True, track_running_stats=True)
    (6): ELU(alpha=1.0)
    (7): Dropout(p=0.1, inplace=False)
    (8): Linear(in_features=64, out_features=1, bias=True)
  )
)
2023-04-09 15:45:35,159 INFO     TRAINING the model
2023-04-09 15:46:07,717 INFO     ===Epoch 001===
2023-04-09 15:46:07,717 INFO     Train | MSE: 6.18924 | RMSE: 2.48782 | MAE: 2.08636 | R2: 0.12809 | PCC: 0.78543 | SCC: 0.73335
2023-04-09 15:46:07,717 INFO     Test  | MSE: 3.18089 | RMSE: 1.78350 | MAE: 1.43969 | R2: 0.55217 | PCC: 0.85499 | SCC: 0.83005
…
2023-04-09 17:12:04,944 INFO     Train | MSE: 0.97861 | RMSE: 0.9892491102218628 | MAE: 0.7597781419754028 | R2: 0.8622038451904174 | PCC: 0.9285506642169626 | SCC: 0.9019451744373147
2023-04-09 17:12:04,944 INFO     Test  | MSE: 0.97107 | RMSE: 0.9854286909103394 | MAE: 0.7339352965354919 | R2: 0.8631714267540351 | PCC: 0.9290925664045934 | SCC: 0.9068730899478771
2023-04-09 17:12:06,088 INFO     



2023-04-09 17:12:06,089 INFO     conv_type: GCNConv
2023-04-09 17:12:06,089 INFO     conv_layers: 2
2023-04-09 17:12:06,089 INFO     global_pooling: mean
2023-04-09 17:12:06,106 INFO     Number of GPUs: 1
2023-04-09 17:12:06,106 INFO     GPU Usage: 327857664
2023-04-09 17:12:06,109 INFO     GraphGraph(
  (cell_emb): Sequential(
    (0): GCNConv(4, 128)
    (1): BatchNorm1d(128, eps=1e-05, momentum=0.1, affine=True, track_running_stats=True)
    (2): ReLU(inplace=True)
    (3): GCNConv(128, 128)
    (4): <function global_mean_pool at 0x7f98a01f8af0>
    (5): Linear(in_features=128, out_features=128, bias=True)
    (6): BatchNorm1d(128, eps=1e-05, momentum=0.1, affine=True, track_running_stats=True)
    (7): ReLU()
    (8): Dropout(p=0.1, inplace=False)
    (9): Linear(in_features=128, out_features=128, bias=True)
    (10): ReLU()
  )
  (drug_emb): Sequential(
    (0): GINConv(nn=Sequential(
    (0): Linear(in_features=9, out_features=128, bias=True)
    (1): BatchNorm1d(128, eps=1e-05, momentum=0.1, affine=True, track_running_stats=True)
    (2): ReLU()
    (3): Linear(in_features=128, out_features=128, bias=True)
  ))
    (1): ReLU(inplace=True)
    (2): BatchNorm1d(128, eps=1e-05, momentum=0.1, affine=True, track_running_stats=True)
    (3): GINConv(nn=Sequential(
    (0): Linear(in_features=128, out_features=128, bias=True)
    (1): BatchNorm1d(128, eps=1e-05, momentum=0.1, affine=True, track_running_stats=True)
    (2): ReLU()
    (3): Linear(in_features=128, out_features=128, bias=True)
  ))
    (4): ReLU(inplace=True)
    (5): BatchNorm1d(128, eps=1e-05, momentum=0.1, affine=True, track_running_stats=True)
    (6): <function global_max_pool at 0x7f98a01f8b80>
    (7): Linear(in_features=128, out_features=128, bias=True)
    (8): BatchNorm1d(128, eps=1e-05, momentum=0.1, affine=True, track_running_stats=True)
    (9): ReLU()
    (10): Dropout(p=0.1, inplace=False)
    (11): Linear(in_features=128, out_features=128, bias=True)
    (12): ReLU()
  )
  (fcn): Sequential(
    (0): Linear(in_features=256, out_features=128, bias=True)
    (1): BatchNorm1d(128, eps=1e-05, momentum=0.1, affine=True, track_running_stats=True)
    (2): ELU(alpha=1.0)
    (3): Dropout(p=0.1, inplace=False)
    (4): Linear(in_features=128, out_features=64, bias=True)
    (5): BatchNorm1d(64, eps=1e-05, momentum=0.1, affine=True, track_running_stats=True)
    (6): ELU(alpha=1.0)
    (7): Dropout(p=0.1, inplace=False)
    (8): Linear(in_features=64, out_features=1, bias=True)
  )
)
2023-04-09 17:12:06,109 INFO     TRAINING the model
2023-04-09 17:12:43,700 INFO     ===Epoch 001===
2023-04-09 17:12:43,700 INFO     Train | MSE: 7.50148 | RMSE: 2.73888 | MAE: 2.34277 | R2: -0.05660 | PCC: 0.77780 | SCC: 0.72374
2023-04-09 17:12:43,701 INFO     Test  | MSE: 3.89839 | RMSE: 1.97443 | MAE: 1.61064 | R2: 0.45080 | PCC: 0.83339 | SCC: 0.80200
…
2023-04-09 20:30:12,169 INFO     Train | MSE: 0.96126 | RMSE: 0.9804362654685974 | MAE: 0.753383219242096 | R2: 0.8646521775143987 | PCC: 0.9298700809143409 | SCC: 0.9035814149306156
2023-04-09 20:30:12,169 INFO     Test  | MSE: 0.97181 | RMSE: 0.9858031272888184 | MAE: 0.7305927872657776 | R2: 0.8632171034089752 | PCC: 0.9291673382774972 | SCC: 0.9070030383393065
2023-04-09 20:30:22,054 INFO     



2023-04-09 20:30:22,055 INFO     conv_type: GCNConv
2023-04-09 20:30:22,055 INFO     conv_layers: 3
2023-04-09 20:30:22,055 INFO     global_pooling: mean
2023-04-09 20:30:22,073 INFO     Number of GPUs: 1
2023-04-09 20:30:22,073 INFO     GPU Usage: 372049920
2023-04-09 20:30:22,077 INFO     GraphGraph(
  (cell_emb): Sequential(
    (0): GCNConv(4, 128)
    (1): BatchNorm1d(128, eps=1e-05, momentum=0.1, affine=True, track_running_stats=True)
    (2): ReLU(inplace=True)
    (3): GCNConv(128, 128)
    (4): BatchNorm1d(128, eps=1e-05, momentum=0.1, affine=True, track_running_stats=True)
    (5): ReLU(inplace=True)
    (6): GCNConv(128, 128)
    (7): BatchNorm1d(128, eps=1e-05, momentum=0.1, affine=True, track_running_stats=True)
    (8): <function global_mean_pool at 0x7f98a01f8af0>
    (9): Linear(in_features=128, out_features=128, bias=True)
    (10): BatchNorm1d(128, eps=1e-05, momentum=0.1, affine=True, track_running_stats=True)
    (11): ReLU()
    (12): Dropout(p=0.1, inplace=False)
    (13): Linear(in_features=128, out_features=128, bias=True)
    (14): ReLU()
  )
  (drug_emb): Sequential(
    (0): GINConv(nn=Sequential(
    (0): Linear(in_features=9, out_features=128, bias=True)
    (1): BatchNorm1d(128, eps=1e-05, momentum=0.1, affine=True, track_running_stats=True)
    (2): ReLU()
    (3): Linear(in_features=128, out_features=128, bias=True)
  ))
    (1): ReLU(inplace=True)
    (2): BatchNorm1d(128, eps=1e-05, momentum=0.1, affine=True, track_running_stats=True)
    (3): GINConv(nn=Sequential(
    (0): Linear(in_features=128, out_features=128, bias=True)
    (1): BatchNorm1d(128, eps=1e-05, momentum=0.1, affine=True, track_running_stats=True)
    (2): ReLU()
    (3): Linear(in_features=128, out_features=128, bias=True)
  ))
    (4): ReLU(inplace=True)
    (5): BatchNorm1d(128, eps=1e-05, momentum=0.1, affine=True, track_running_stats=True)
    (6): <function global_max_pool at 0x7f98a01f8b80>
    (7): Linear(in_features=128, out_features=128, bias=True)
    (8): BatchNorm1d(128, eps=1e-05, momentum=0.1, affine=True, track_running_stats=True)
    (9): ReLU()
    (10): Dropout(p=0.1, inplace=False)
    (11): Linear(in_features=128, out_features=128, bias=True)
    (12): ReLU()
  )
  (fcn): Sequential(
    (0): Linear(in_features=256, out_features=128, bias=True)
    (1): BatchNorm1d(128, eps=1e-05, momentum=0.1, affine=True, track_running_stats=True)
    (2): ELU(alpha=1.0)
    (3): Dropout(p=0.1, inplace=False)
    (4): Linear(in_features=128, out_features=64, bias=True)
    (5): BatchNorm1d(64, eps=1e-05, momentum=0.1, affine=True, track_running_stats=True)
    (6): ELU(alpha=1.0)
    (7): Dropout(p=0.1, inplace=False)
    (8): Linear(in_features=64, out_features=1, bias=True)
  )
)
2023-04-09 20:30:22,080 INFO     TRAINING the model
2023-04-09 20:31:07,569 INFO     ===Epoch 001===
2023-04-09 20:31:07,570 INFO     Train | MSE: 6.36734 | RMSE: 2.52336 | MAE: 2.11723 | R2: 0.10322 | PCC: 0.77783 | SCC: 0.72589
2023-04-09 20:31:07,570 INFO     Test  | MSE: 3.57350 | RMSE: 1.89037 | MAE: 1.51798 | R2: 0.49728 | PCC: 0.83920 | SCC: 0.80599
…
2023-04-10 01:49:03,277 INFO     Train | MSE: 1.22001 | RMSE: 1.1045423746109009 | MAE: 0.8401341438293457 | R2: 0.8282224482405383 | PCC: 0.9100686024919814 | SCC: 0.8822474117246374
2023-04-10 01:49:03,278 INFO     Test  | MSE: 1.17214 | RMSE: 1.0826561450958252 | MAE: 0.7997381091117859 | R2: 0.8348048856087394 | PCC: 0.9137364553291989 | SCC: 0.8898938873969007
2023-04-10 01:49:21,045 INFO     



2023-04-10 01:49:21,046 INFO     conv_type: GATConv
2023-04-10 01:49:21,046 INFO     conv_layers: 3
2023-04-10 01:49:21,046 INFO     global_pooling: max
2023-04-10 01:49:21,065 INFO     Number of GPUs: 1
2023-04-10 01:49:21,065 INFO     GPU Usage: 565136896
2023-04-10 01:49:21,069 INFO     GraphGraph(
  (cell_emb): Sequential(
    (0): GATConv(4, 128, heads=1)
    (1): BatchNorm1d(128, eps=1e-05, momentum=0.1, affine=True, track_running_stats=True)
    (2): ReLU(inplace=True)
    (3): GATConv(128, 128, heads=1)
    (4): BatchNorm1d(128, eps=1e-05, momentum=0.1, affine=True, track_running_stats=True)
    (5): ReLU(inplace=True)
    (6): GATConv(128, 128, heads=1)
    (7): BatchNorm1d(128, eps=1e-05, momentum=0.1, affine=True, track_running_stats=True)
    (8): <function global_max_pool at 0x7f98a01f8b80>
    (9): Linear(in_features=128, out_features=128, bias=True)
    (10): ReLU()
    (11): Dropout(p=0.1, inplace=False)
    (12): Linear(in_features=128, out_features=128, bias=True)
    (13): ReLU()
    (14): Dropout(p=0.1, inplace=False)
  )
  (drug_emb): Sequential(
    (0): GINConv(nn=Sequential(
    (0): Linear(in_features=9, out_features=128, bias=True)
    (1): BatchNorm1d(128, eps=1e-05, momentum=0.1, affine=True, track_running_stats=True)
    (2): ReLU()
    (3): Linear(in_features=128, out_features=128, bias=True)
  ))
    (1): ReLU(inplace=True)
    (2): BatchNorm1d(128, eps=1e-05, momentum=0.1, affine=True, track_running_stats=True)
    (3): GINConv(nn=Sequential(
    (0): Linear(in_features=128, out_features=128, bias=True)
    (1): BatchNorm1d(128, eps=1e-05, momentum=0.1, affine=True, track_running_stats=True)
    (2): ReLU()
    (3): Linear(in_features=128, out_features=128, bias=True)
  ))
    (4): ReLU(inplace=True)
    (5): BatchNorm1d(128, eps=1e-05, momentum=0.1, affine=True, track_running_stats=True)
    (6): <function global_max_pool at 0x7f98a01f8b80>
    (7): Linear(in_features=128, out_features=128, bias=True)
    (8): BatchNorm1d(128, eps=1e-05, momentum=0.1, affine=True, track_running_stats=True)
    (9): ReLU()
    (10): Dropout(p=0.1, inplace=False)
    (11): Linear(in_features=128, out_features=128, bias=True)
    (12): ReLU()
  )
  (fcn): Sequential(
    (0): Linear(in_features=256, out_features=128, bias=True)
    (1): BatchNorm1d(128, eps=1e-05, momentum=0.1, affine=True, track_running_stats=True)
    (2): ELU(alpha=1.0)
    (3): Dropout(p=0.1, inplace=False)
    (4): Linear(in_features=128, out_features=64, bias=True)
    (5): BatchNorm1d(64, eps=1e-05, momentum=0.1, affine=True, track_running_stats=True)
    (6): ELU(alpha=1.0)
    (7): Dropout(p=0.1, inplace=False)
    (8): Linear(in_features=64, out_features=1, bias=True)
  )
)
2023-04-10 01:49:21,072 INFO     TRAINING the model
2023-04-10 01:50:12,863 INFO     ===Epoch 001===
2023-04-10 01:50:12,863 INFO     Train | MSE: 7.40858 | RMSE: 2.72187 | MAE: 2.31760 | R2: -0.04372 | PCC: 0.77706 | SCC: 0.72365
2023-04-10 01:50:12,864 INFO     Test  | MSE: 3.99587 | RMSE: 1.99897 | MAE: 1.64509 | R2: 0.43863 | PCC: 0.84556 | SCC: 0.81393
…
