…
2023-04-08 12:49:58,176 INFO     # drugs        : 181
2023-04-08 12:49:58,176 INFO     # genes        : 293
2023-04-08 12:49:58,176 INFO         Finished creating pytorch training datasets!
2023-04-08 12:49:58,176 INFO         Number of batches per dataset:
2023-04-08 12:49:58,176 INFO             train : 862
2023-04-08 12:49:58,176 INFO             test  : 216
2023-04-08 12:49:58,176 INFO     device: cuda
2023-04-08 12:49:58,225 INFO     Number of GPUs: 1
2023-04-08 12:49:58,225 INFO     GPU Usage: 0
2023-04-08 12:50:00,523 INFO     GraphTab(
  (cell_emb): Sequential(
    (0): GCNConv(4, 128)
    (1): BatchNorm1d(128, eps=1e-05, momentum=0.1, affine=True, track_running_stats=True)
    (2): ReLU(inplace=True)
    (3): GCNConv(128, 128)
    (4): BatchNorm1d(128, eps=1e-05, momentum=0.1, affine=True, track_running_stats=True)
    (5): <function global_max_pool at 0x7fa10004cc10>
    (6): Linear(in_features=128, out_features=128, bias=True)
    (7): BatchNorm1d(128, eps=1e-05, momentum=0.1, affine=True, track_running_stats=True)
    (8): ReLU()
    (9): Dropout(p=0.1, inplace=False)
    (10): Linear(in_features=128, out_features=128, bias=True)
    (11): ReLU()
  )
  (drug_emb): Sequential(
    (0): Linear(in_features=256, out_features=128, bias=True)
    (1): BatchNorm1d(128, eps=1e-05, momentum=0.1, affine=True, track_running_stats=True)
    (2): ReLU()
    (3): Dropout(p=0.1, inplace=False)
    (4): Linear(in_features=128, out_features=128, bias=True)
    (5): BatchNorm1d(128, eps=1e-05, momentum=0.1, affine=True, track_running_stats=True)
    (6): ReLU()
  )
  (fcn): Sequential(
    (0): Linear(in_features=256, out_features=128, bias=True)
    (1): BatchNorm1d(128, eps=1e-05, momentum=0.1, affine=True, track_running_stats=True)
    (2): ELU(alpha=1.0)
    (3): Dropout(p=0.1, inplace=False)
    (4): Linear(in_features=128, out_features=64, bias=True)
    (5): BatchNorm1d(64, eps=1e-05, momentum=0.1, affine=True, track_running_stats=True)
    (6): ELU(alpha=1.0)
    (7): Dropout(p=0.1, inplace=False)
    (8): Linear(in_features=64, out_features=1, bias=True)
  )
)
2023-04-08 12:50:00,524 INFO     TRAINING the model
2023-04-08 12:50:49,237 INFO     ===Epoch 001===
2023-04-08 12:50:49,238 INFO     Train | MSE: 5.44972
2023-04-08 12:50:49,238 INFO     Test  | MSE: 2.74859
2023-04-08 12:51:38,411 INFO     ===Epoch 002===
2023-04-08 12:51:38,412 INFO     Train | MSE: 2.25054
2023-04-08 12:51:38,412 INFO     Test  | MSE: 1.67825
…
