…
2023-04-08 20:25:38,723 INFO     # drugs        : 181
2023-04-08 20:25:38,723 INFO     # genes        : 293
2023-04-08 20:25:38,723 INFO         Finished creating pytorch training datasets!
2023-04-08 20:25:38,723 INFO         Number of batches per dataset:
2023-04-08 20:25:38,723 INFO             train : 862
2023-04-08 20:25:38,723 INFO             test  : 216
2023-04-08 20:25:38,723 INFO     device: cuda
2023-04-08 20:25:38,774 INFO     Number of GPUs: 1
2023-04-08 20:25:38,774 INFO     GPU Usage: 0
2023-04-08 20:25:41,074 INFO     GraphTab(
  (cell_emb): Sequential(
    (0): GCNConv(4, 128)
    (1): BatchNorm1d(128, eps=1e-05, momentum=0.1, affine=True, track_running_stats=True)
    (2): ReLU(inplace=True)
    (3): GCNConv(128, 128)
    (4): BatchNorm1d(128, eps=1e-05, momentum=0.1, affine=True, track_running_stats=True)
    (5): ReLU(inplace=True)
    (6): GCNConv(128, 128)
    (7): BatchNorm1d(128, eps=1e-05, momentum=0.1, affine=True, track_running_stats=True)
    (8): <function global_max_pool at 0x7f7eb7aecc10>
    (9): Linear(in_features=128, out_features=128, bias=True)
    (10): BatchNorm1d(128, eps=1e-05, momentum=0.1, affine=True, track_running_stats=True)
    (11): ReLU()
    (12): Dropout(p=0.1, inplace=False)
    (13): Linear(in_features=128, out_features=128, bias=True)
    (14): ReLU()
  )
  (drug_emb): Sequential(
    (0): Linear(in_features=256, out_features=128, bias=True)
    (1): BatchNorm1d(128, eps=1e-05, momentum=0.1, affine=True, track_running_stats=True)
    (2): ReLU()
    (3): Dropout(p=0.1, inplace=False)
    (4): Linear(in_features=128, out_features=128, bias=True)
    (5): BatchNorm1d(128, eps=1e-05, momentum=0.1, affine=True, track_running_stats=True)
    (6): ReLU()
  )
  (fcn): Sequential(
    (0): Linear(in_features=256, out_features=128, bias=True)
    (1): BatchNorm1d(128, eps=1e-05, momentum=0.1, affine=True, track_running_stats=True)
    (2): ELU(alpha=1.0)
    (3): Dropout(p=0.1, inplace=False)
    (4): Linear(in_features=128, out_features=64, bias=True)
    (5): BatchNorm1d(64, eps=1e-05, momentum=0.1, affine=True, track_running_stats=True)
    (6): ELU(alpha=1.0)
    (7): Dropout(p=0.1, inplace=False)
    (8): Linear(in_features=64, out_features=1, bias=True)
  )
)
2023-04-08 20:25:41,074 INFO     TRAINING the model
2023-04-08 20:26:33,308 INFO     ===Epoch 001===
2023-04-08 20:26:33,308 INFO     Train | MSE: 6.67117 | RMSE: 2.58286 | MAE: 2.19109 | R2: 0.06027 | PCC: 0.78874 | SCC: 0.74082
2023-04-08 20:26:33,308 INFO     Test  | MSE: 3.22292 | RMSE: 1.79525 | MAE: 1.46004 | R2: 0.54647 | PCC: 0.86603 | SCC: 0.84113
…
