…
2023-03-27 21:45:40,861 INFO     =======================
2023-03-27 21:45:40,861 INFO     # observations : 27567
2023-03-27 21:45:40,876 INFO     # cell-lines   : 856
2023-03-27 21:45:40,891 INFO     # drugs        : 181
2023-03-27 21:45:40,891 INFO     # genes        : 293
2023-03-27 21:45:40,891 INFO         Finished creating pytorch training datasets!
2023-03-27 21:45:40,891 INFO         Number of batches per dataset:
2023-03-27 21:45:40,891 INFO             train : 904
2023-03-27 21:45:40,891 INFO             test  : 226
2023-03-27 21:45:44,009 INFO     GraphGraph(
  (cell_emb): Sequential(
    (0): GATConv(4, 256, heads=1)
    (1): BatchNorm1d(256, eps=1e-05, momentum=0.1, affine=True, track_running_stats=True)
    (2): ReLU(inplace=True)
    (3): GATConv(256, 128, heads=1)
    (4): BatchNorm1d(128, eps=1e-05, momentum=0.1, affine=True, track_running_stats=True)
    (5): ReLU(inplace=True)
    (6): GATConv(128, 128, heads=1)
    (7): BatchNorm1d(128, eps=1e-05, momentum=0.1, affine=True, track_running_stats=True)
    (8): <function global_max_pool at 0x7fc024424700>
    (9): Linear(in_features=128, out_features=128, bias=True)
    (10): ReLU()
    (11): Dropout(p=0.1, inplace=False)
    (12): Linear(in_features=128, out_features=128, bias=True)
    (13): ReLU()
    (14): Dropout(p=0.1, inplace=False)
  )
  (drug_emb): Sequential(
    (0): GINConv(nn=Sequential(
    (0): Linear(in_features=9, out_features=128, bias=True)
    (1): BatchNorm1d(128, eps=1e-05, momentum=0.1, affine=True, track_running_stats=True)
    (2): ReLU()
    (3): Linear(in_features=128, out_features=128, bias=True)
  ))
    (1): ReLU(inplace=True)
    (2): BatchNorm1d(128, eps=1e-05, momentum=0.1, affine=True, track_running_stats=True)
    (3): GINConv(nn=Sequential(
    (0): Linear(in_features=128, out_features=128, bias=True)
    (1): BatchNorm1d(128, eps=1e-05, momentum=0.1, affine=True, track_running_stats=True)
    (2): ReLU()
    (3): Linear(in_features=128, out_features=128, bias=True)
  ))
    (4): ReLU(inplace=True)
    (5): BatchNorm1d(128, eps=1e-05, momentum=0.1, affine=True, track_running_stats=True)
    (6): <function global_max_pool at 0x7fc024424700>
    (7): Linear(in_features=128, out_features=128, bias=True)
    (8): BatchNorm1d(128, eps=1e-05, momentum=0.1, affine=True, track_running_stats=True)
    (9): ReLU()
    (10): Dropout(p=0.1, inplace=False)
    (11): Linear(in_features=128, out_features=128, bias=True)
    (12): ReLU()
  )
  (fcn): Sequential(
    (0): Linear(in_features=256, out_features=128, bias=True)
    (1): BatchNorm1d(128, eps=1e-05, momentum=0.1, affine=True, track_running_stats=True)
    (2): ELU(alpha=1.0)
    (3): Dropout(p=0.1, inplace=False)
    (4): Linear(in_features=128, out_features=64, bias=True)
    (5): BatchNorm1d(64, eps=1e-05, momentum=0.1, affine=True, track_running_stats=True)
    (6): ELU(alpha=1.0)
    (7): Dropout(p=0.1, inplace=False)
    (8): Linear(in_features=64, out_features=1, bias=True)
  )
)
2023-03-27 21:45:44,009 INFO         TRAINING the model
2023-03-27 21:46:25,476 INFO     ===Epoch 001===
2023-03-27 21:46:25,476 INFO     Train | MSE: 2.91907 | RMSE: 1.70853 | MAE: 1.29849 | R2: 0.58895 | PCC: 0.77594 | SCC: 0.72540
2023-03-27 21:47:06,307 INFO     ===Epoch 002===
2023-03-27 21:47:06,307 INFO     Train | MSE: 2.18584 | RMSE: 1.47846 | MAE: 1.12497 | R2: 0.69218 | PCC: 0.83210 | SCC: 0.79261
…
