…
2023-02-18 16:59:59,725 INFO         Finished creating pytorch training datasets!
2023-02-18 16:59:59,725 INFO         Number of batches per dataset:
2023-02-18 16:59:59,725 INFO             train : 862
2023-02-18 16:59:59,725 INFO             test  : 216
2023-02-18 16:59:59,725 INFO     device: cuda
2023-02-18 16:59:59,789 INFO     Number of GPUs: 1
2023-02-18 16:59:59,789 INFO     GPU Usage: 0
2023-02-18 17:00:02,231 INFO     GraphGraph(
  (cell_emb): Sequential(
    (0): GCNConv(4, 256)
    (1): ReLU(inplace=True)
    (2): Dropout(p=0.1, inplace=False)
    (3): GCNConv(256, 128)
    (4): ReLU(inplace=True)
    (5): <function global_mean_pool at 0x7f6e7447a830>
    (6): Linear(in_features=128, out_features=128, bias=True)
    (7): BatchNorm1d(128, eps=1e-05, momentum=0.1, affine=True, track_running_stats=True)
    (8): ReLU()
    (9): Dropout(p=0.1, inplace=False)
    (10): Linear(in_features=128, out_features=128, bias=True)
    (11): ReLU()
  )
  (drug_emb): Sequential(
    (0): GINConv(nn=Sequential(
    (0): Linear(in_features=9, out_features=128, bias=True)
    (1): BatchNorm1d(128, eps=1e-05, momentum=0.1, affine=True, track_running_stats=True)
    (2): ReLU()
    (3): Linear(in_features=128, out_features=128, bias=True)
  ))
    (1): ReLU(inplace=True)
    (2): BatchNorm1d(128, eps=1e-05, momentum=0.1, affine=True, track_running_stats=True)
    (3): GINConv(nn=Sequential(
    (0): Linear(in_features=128, out_features=128, bias=True)
    (1): BatchNorm1d(128, eps=1e-05, momentum=0.1, affine=True, track_running_stats=True)
    (2): ReLU()
    (3): Linear(in_features=128, out_features=128, bias=True)
  ))
    (4): ReLU(inplace=True)
    (5): BatchNorm1d(128, eps=1e-05, momentum=0.1, affine=True, track_running_stats=True)
    (6): <function global_max_pool at 0x7f6e7447a8c0>
    (7): Linear(in_features=128, out_features=128, bias=True)
    (8): BatchNorm1d(128, eps=1e-05, momentum=0.1, affine=True, track_running_stats=True)
    (9): ReLU()
    (10): Dropout(p=0.1, inplace=False)
    (11): Linear(in_features=128, out_features=128, bias=True)
    (12): ReLU()
  )
  (fcn): Sequential(
    (0): Linear(in_features=256, out_features=128, bias=True)
    (1): BatchNorm1d(128, eps=1e-05, momentum=0.1, affine=True, track_running_stats=True)
    (2): ELU(alpha=1.0)
    (3): Dropout(p=0.1, inplace=False)
    (4): Linear(in_features=128, out_features=64, bias=True)
    (5): BatchNorm1d(64, eps=1e-05, momentum=0.1, affine=True, track_running_stats=True)
    (6): ELU(alpha=1.0)
    (7): Dropout(p=0.1, inplace=False)
    (8): Linear(in_features=64, out_features=1, bias=True)
  )
)
2023-02-18 17:00:02,232 INFO     TRAINING the model
2023-02-18 17:00:40,627 INFO     ===Epoch 001===
2023-02-18 17:00:40,627 INFO     Train | MSE: 6.16253 | RMSE: 2.48245 | MAE: 2.06011 | R2: 0.13198 | PCC: 0.76469 | SCC: 0.70187
2023-02-18 17:00:40,627 INFO     Test  | MSE: 3.67170 | RMSE: 1.91617 | MAE: 1.53400 | R2: 0.48296 | PCC: 0.81786 | SCC: 0.77621
…
