…
2023-01-09 22:13:04,015 INFO     # genes        : 293
2023-01-09 22:13:04,017 INFO     Finished creating pytorch training datasets!
2023-01-09 22:13:04,017 INFO     Number of batches per dataset:
2023-01-09 22:13:04,017 INFO       train : 862
2023-01-09 22:13:04,017 INFO       test  : 108
2023-01-09 22:13:04,017 INFO       val   : 108
2023-01-09 22:13:04,069 INFO     device: cuda
2023-01-09 22:13:05,871 INFO     GraphTab_v1(
  (cell_emb): Sequential(
    (0): GCNConv(4, 256)
    (1): ReLU(inplace=True)
    (2): GCNConv(256, 256)
    (3): ReLU(inplace=True)
    (4): <function global_mean_pool at 0x7f6952b4c430>
    (5): Linear(in_features=256, out_features=128, bias=True)
    (6): BatchNorm1d(128, eps=1e-05, momentum=0.1, affine=True, track_running_stats=True)
    (7): ReLU()
    (8): Dropout(p=0.1, inplace=False)
    (9): Linear(in_features=128, out_features=128, bias=True)
    (10): ReLU()
  )
  (drug_emb): Sequential(
    (0): Linear(in_features=256, out_features=128, bias=True)
    (1): BatchNorm1d(128, eps=1e-05, momentum=0.1, affine=True, track_running_stats=True)
    (2): ReLU()
    (3): Dropout(p=0.1, inplace=False)
    (4): Linear(in_features=128, out_features=128, bias=True)
    (5): BatchNorm1d(128, eps=1e-05, momentum=0.1, affine=True, track_running_stats=True)
    (6): ReLU()
  )
  (fcn): Sequential(
    (0): Linear(in_features=256, out_features=128, bias=True)
    (1): BatchNorm1d(128, eps=1e-05, momentum=0.1, affine=True, track_running_stats=True)
    (2): ELU(alpha=1.0)
    (3): Dropout(p=0.1, inplace=False)
    (4): Linear(in_features=128, out_features=64, bias=True)
    (5): BatchNorm1d(64, eps=1e-05, momentum=0.1, affine=True, track_running_stats=True)
    (6): ELU(alpha=1.0)
    (7): Dropout(p=0.1, inplace=False)
    (8): Linear(in_features=64, out_features=1, bias=True)
  )
)
2023-01-09 22:14:45,233 INFO     ===Epoch 001===
2023-01-09 22:14:45,233 INFO     Train      | MSE: 3.02499
2023-01-09 22:14:45,234 INFO     Validation | MSE: 2.62974
2023-01-09 22:16:32,734 INFO     ===Epoch 002===
2023-01-09 22:16:32,735 INFO     Train      | MSE: 2.23418
2023-01-09 22:16:32,735 INFO     Validation | MSE: 2.29205
2023-01-09 22:18:10,422 INFO     ===Epoch 003===
…
