…
2023-01-08 16:08:52,384 INFO     GraphTabDataset Summary
2023-01-08 16:08:52,384 INFO     =======================
2023-01-08 16:08:52,384 INFO     # observations : 41351
2023-01-08 16:08:52,410 INFO     # cell-lines   : 856
2023-01-08 16:08:52,435 INFO     # drugs        : 181
2023-01-08 16:08:52,435 INFO     # genes        : 293
2023-01-08 16:08:52,436 INFO     GraphTab_v2(
  (cell_emb): Sequential(
    (0): GATConv(4, 256, heads=1)
    (1): ReLU(inplace=True)
    (2): Dropout(p=0.1, inplace=False)
    (3): GATConv(256, 128, heads=1)
    (4): ReLU(inplace=True)
    (5): <function global_max_pool at 0x7fe6425e6e60>
    (6): Linear(in_features=128, out_features=128, bias=True)
    (7): BatchNorm1d(128, eps=1e-05, momentum=0.1, affine=True, track_running_stats=True)
    (8): ReLU()
    (9): Dropout(p=0.1, inplace=False)
    (10): Linear(in_features=128, out_features=128, bias=True)
    (11): ReLU()
  )
  (drug_emb): Sequential(
    (0): Linear(in_features=256, out_features=128, bias=True)
    (1): BatchNorm1d(128, eps=1e-05, momentum=0.1, affine=True, track_running_stats=True)
    (2): ReLU()
    (3): Dropout(p=0.1, inplace=False)
    (4): Linear(in_features=128, out_features=128, bias=True)
    (5): BatchNorm1d(128, eps=1e-05, momentum=0.1, affine=True, track_running_stats=True)
    (6): ReLU()
  )
  (fcn): Sequential(
    (0): Linear(in_features=256, out_features=128, bias=True)
    (1): BatchNorm1d(128, eps=1e-05, momentum=0.1, affine=True, track_running_stats=True)
    (2): ELU(alpha=1.0)
    (3): Dropout(p=0.1, inplace=False)
    (4): Linear(in_features=128, out_features=64, bias=True)
    (5): BatchNorm1d(64, eps=1e-05, momentum=0.1, affine=True, track_running_stats=True)
    (6): ELU(alpha=1.0)
    (7): Dropout(p=0.1, inplace=False)
    (8): Linear(in_features=64, out_features=1, bias=True)
  )
)
2023-01-08 16:10:34,128 INFO     ===Epoch 001===
2023-01-08 16:10:34,129 INFO     Train      | MSE: 2.74348
2023-01-08 16:10:34,129 INFO     Validation | MSE: 2.26915
2023-01-08 16:12:06,570 INFO     ===Epoch 002===
2023-01-08 16:12:06,571 INFO     Train      | MSE: 2.31594
2023-01-08 16:12:06,571 INFO     Validation | MSE: 2.22794
2023-01-08 16:12:53,228 INFO     Test       | MSE: 2.18750
…
