…
2023-02-13 23:17:50,700 INFO         Number of batches per dataset:
2023-02-13 23:17:50,700 INFO             train : 862
2023-02-13 23:17:50,700 INFO             test  : 216
2023-02-13 23:17:50,700 INFO     device: cuda
2023-02-13 23:17:50,770 INFO     Number of GPUs: 1
2023-02-13 23:17:50,770 INFO     GPU Usage: 0
2023-02-13 23:17:53,341 INFO     GraphGraph(
  (cell_emb): Sequential(
    (0): GATConv(4, 512, heads=1)
    (1): ReLU(inplace=True)
    (2): GATConv(512, 256, heads=1)
    (3): ReLU(inplace=True)
    (4): GATConv(256, 128, heads=1)
    (5): ReLU(inplace=True)
    (6): <function global_mean_pool at 0x7f9c95afe830>
    (7): Linear(in_features=128, out_features=128, bias=True)
    (8): BatchNorm1d(128, eps=1e-05, momentum=0.1, affine=True, track_running_stats=True)
    (9): ReLU()
    (10): Dropout(p=0.1, inplace=False)
    (11): Linear(in_features=128, out_features=128, bias=True)
    (12): ReLU()
  )
  (drug_emb): Sequential(
    (0): GINConv(nn=Sequential(
    (0): Linear(in_features=9, out_features=128, bias=True)
    (1): BatchNorm1d(128, eps=1e-05, momentum=0.1, affine=True, track_running_stats=True)
    (2): ReLU()
    (3): Linear(in_features=128, out_features=128, bias=True)
  ))
    (1): ReLU(inplace=True)
    (2): BatchNorm1d(128, eps=1e-05, momentum=0.1, affine=True, track_running_stats=True)
    (3): GINConv(nn=Sequential(
    (0): Linear(in_features=128, out_features=128, bias=True)
    (1): BatchNorm1d(128, eps=1e-05, momentum=0.1, affine=True, track_running_stats=True)
    (2): ReLU()
    (3): Linear(in_features=128, out_features=128, bias=True)
  ))
    (4): ReLU(inplace=True)
    (5): BatchNorm1d(128, eps=1e-05, momentum=0.1, affine=True, track_running_stats=True)
    (6): <function global_max_pool at 0x7f9c95afe8c0>
    (7): Linear(in_features=128, out_features=128, bias=True)
    (8): BatchNorm1d(128, eps=1e-05, momentum=0.1, affine=True, track_running_stats=True)
    (9): ReLU()
    (10): Dropout(p=0.1, inplace=False)
    (11): Linear(in_features=128, out_features=128, bias=True)
    (12): ReLU()
  )
  (fcn): Sequential(
    (0): Linear(in_features=256, out_features=128, bias=True)
    (1): BatchNorm1d(128, eps=1e-05, momentum=0.1, affine=True, track_running_stats=True)
    (2): ELU(alpha=1.0)
    (3): Dropout(p=0.1, inplace=False)
    (4): Linear(in_features=128, out_features=64, bias=True)
    (5): BatchNorm1d(64, eps=1e-05, momentum=0.1, affine=True, track_running_stats=True)
    (6): ELU(alpha=1.0)
    (7): Dropout(p=0.1, inplace=False)
    (8): Linear(in_features=64, out_features=1, bias=True)
  )
)
2023-02-13 23:17:53,342 INFO     TRAINING the model
2023-02-13 23:18:44,354 INFO     ===Epoch 001===
2023-02-13 23:18:44,355 INFO     Train | MSE: 6.77287
2023-02-13 23:18:44,355 INFO     Test  | MSE: 3.21392
2023-02-13 23:19:33,902 INFO     ===Epoch 002===
2023-02-13 23:19:33,902 INFO     Train | MSE: 3.02416
2023-02-13 23:19:33,902 INFO     Test  | MSE: 2.33781
…
