…
2022-12-23 02:56:25,610 INFO     # observations : 13784
2022-12-23 02:56:25,619 INFO     # cell-lines   : 856
2022-12-23 02:56:25,627 INFO     # drugs        : 181
2022-12-23 02:56:25,627 INFO     # genes        : 293
2022-12-23 02:56:25,627 INFO     Finished creating pytorch training datasets!
2022-12-23 02:56:25,628 INFO     Number of batches per dataset:
2022-12-23 02:56:25,628 INFO       train : 1103
2022-12-23 02:56:25,628 INFO       test  : 138
2022-12-23 02:56:25,628 INFO       val   : 138
2022-12-23 02:56:25,677 INFO     device: cuda
2022-12-23 02:56:27,226 INFO     TabTab_v1(
  (cell_emb): Sequential(
    (0): Linear(in_features=1172, out_features=516, bias=True)
    (1): BatchNorm1d(516, eps=1e-05, momentum=0.1, affine=True, track_running_stats=True)
    (2): ReLU()
    (3): Dropout(p=0.1, inplace=False)
    (4): Linear(in_features=516, out_features=256, bias=True)
    (5): BatchNorm1d(256, eps=1e-05, momentum=0.1, affine=True, track_running_stats=True)
    (6): ReLU()
    (7): Dropout(p=0.1, inplace=False)
    (8): Linear(in_features=256, out_features=128, bias=True)
    (9): BatchNorm1d(128, eps=1e-05, momentum=0.1, affine=True, track_running_stats=True)
    (10): ReLU()
  )
  (drug_emb): Sequential(
    (0): Linear(in_features=256, out_features=128, bias=True)
    (1): BatchNorm1d(128, eps=1e-05, momentum=0.1, affine=True, track_running_stats=True)
    (2): ReLU()
    (3): Dropout(p=0.1, inplace=False)
    (4): Linear(in_features=128, out_features=128, bias=True)
    (5): BatchNorm1d(128, eps=1e-05, momentum=0.1, affine=True, track_running_stats=True)
    (6): ReLU()
  )
  (fcn): Sequential(
    (0): Linear(in_features=256, out_features=128, bias=True)
    (1): BatchNorm1d(128, eps=1e-05, momentum=0.1, affine=True, track_running_stats=True)
    (2): ELU(alpha=1.0)
    (3): Dropout(p=0.1, inplace=False)
    (4): Linear(in_features=128, out_features=64, bias=True)
    (5): BatchNorm1d(64, eps=1e-05, momentum=0.1, affine=True, track_running_stats=True)
    (6): ELU(alpha=1.0)
    (7): Dropout(p=0.1, inplace=False)
    (8): Linear(in_features=64, out_features=1, bias=True)
  )
)
2022-12-23 02:56:27,227 INFO     TRAINING the model
2022-12-23 02:56:59,469 INFO     =====Epoch 1
2022-12-23 02:56:59,469 INFO     Train      | MSE: 5.72702
2022-12-23 02:56:59,469 INFO     Validation | MSE: 2.31554
2022-12-23 02:57:33,439 INFO     =====Epoch 2
2022-12-23 02:57:33,439 INFO     Train      | MSE: 1.97432
2022-12-23 02:57:33,440 INFO     Validation | MSE: 1.49183
…
