…
2023-01-09 08:36:04,988 INFO     Finished creating pytorch training datasets!
2023-01-09 08:36:04,988 INFO     Number of batches per dataset:
2023-01-09 08:36:04,988 INFO       train : 862
2023-01-09 08:36:04,988 INFO       test  : 108
2023-01-09 08:36:04,988 INFO       val   : 108
2023-01-09 08:36:05,041 INFO     device: cuda
2023-01-09 08:36:06,788 INFO     GraphTab_v2(
  (cell_emb): Sequential(
    (0): GATConv(4, 256, heads=1)
    (1): ReLU(inplace=True)
    (2): Dropout(p=0.1, inplace=False)
    (3): GATConv(256, 128, heads=1)
    (4): ReLU(inplace=True)
    (5): <function global_max_pool at 0x7fe1d0cec4c0>
    (6): Linear(in_features=128, out_features=128, bias=True)
    (7): BatchNorm1d(128, eps=1e-05, momentum=0.1, affine=True, track_running_stats=True)
    (8): ReLU()
    (9): Dropout(p=0.1, inplace=False)
    (10): Linear(in_features=128, out_features=128, bias=True)
    (11): ReLU()
  )
  (drug_emb): Sequential(
    (0): Linear(in_features=256, out_features=128, bias=True)
    (1): BatchNorm1d(128, eps=1e-05, momentum=0.1, affine=True, track_running_stats=True)
    (2): ReLU()
    (3): Dropout(p=0.1, inplace=False)
    (4): Linear(in_features=128, out_features=128, bias=True)
    (5): BatchNorm1d(128, eps=1e-05, momentum=0.1, affine=True, track_running_stats=True)
    (6): ReLU()
  )
  (fcn): Sequential(
    (0): Linear(in_features=256, out_features=128, bias=True)
    (1): BatchNorm1d(128, eps=1e-05, momentum=0.1, affine=True, track_running_stats=True)
    (2): ELU(alpha=1.0)
    (3): Dropout(p=0.1, inplace=False)
    (4): Linear(in_features=128, out_features=64, bias=True)
    (5): BatchNorm1d(64, eps=1e-05, momentum=0.1, affine=True, track_running_stats=True)
    (6): ELU(alpha=1.0)
    (7): Dropout(p=0.1, inplace=False)
    (8): Linear(in_features=64, out_features=1, bias=True)
  )
)
2023-01-09 08:37:54,353 INFO     ===Epoch 001===
2023-01-09 08:37:54,354 INFO     Train      | MSE: 2.95024
2023-01-09 08:37:54,354 INFO     Validation | MSE: 2.34277
2023-01-09 08:39:32,979 INFO     ===Epoch 002===
2023-01-09 08:39:32,980 INFO     Train      | MSE: 2.19677
2023-01-09 08:39:32,980 INFO     Validation | MSE: 2.30875
2023-01-09 08:41:16,814 INFO     ===Epoch 003===
…
