…
2023-04-02 12:37:47,122 INFO     # drugs        : 181
2023-04-02 12:37:47,122 INFO     # genes        : 643
2023-04-02 12:37:47,122 INFO         Finished creating pytorch training datasets!
2023-04-02 12:37:47,122 INFO         Number of batches per dataset:
2023-04-02 12:37:47,122 INFO             train : 431
2023-04-02 12:37:47,122 INFO             test  : 108
2023-04-02 12:37:47,122 INFO     device: cuda
2023-04-02 12:37:47,180 INFO     Number of GPUs: 1
2023-04-02 12:37:47,180 INFO     GPU Usage: 0
2023-04-02 12:37:49,468 INFO     GraphGraph(
  (cell_emb): Sequential(
    (0): GATConv(4, 128, heads=1)
    (1): BatchNorm1d(128, eps=1e-05, momentum=0.1, affine=True, track_running_stats=True)
    (2): ReLU(inplace=True)
    (3): GATConv(128, 128, heads=1)
    (4): BatchNorm1d(128, eps=1e-05, momentum=0.1, affine=True, track_running_stats=True)
    (5): ReLU(inplace=True)
    (6): GATConv(128, 128, heads=1)
    (7): BatchNorm1d(128, eps=1e-05, momentum=0.1, affine=True, track_running_stats=True)
    (8): <function global_max_pool at 0x7fe5c3ea1c60>
    (9): Linear(in_features=128, out_features=128, bias=True)
    (10): ReLU()
    (11): Dropout(p=0.1, inplace=False)
    (12): Linear(in_features=128, out_features=128, bias=True)
    (13): ReLU()
    (14): Dropout(p=0.1, inplace=False)
  )
  (drug_emb): Sequential(
    (0): GINConv(nn=Sequential(
    (0): Linear(in_features=9, out_features=128, bias=True)
    (1): BatchNorm1d(128, eps=1e-05, momentum=0.1, affine=True, track_running_stats=True)
    (2): ReLU()
    (3): Linear(in_features=128, out_features=128, bias=True)
  ))
    (1): ReLU(inplace=True)
    (2): BatchNorm1d(128, eps=1e-05, momentum=0.1, affine=True, track_running_stats=True)
    (3): GINConv(nn=Sequential(
    (0): Linear(in_features=128, out_features=128, bias=True)
    (1): BatchNorm1d(128, eps=1e-05, momentum=0.1, affine=True, track_running_stats=True)
    (2): ReLU()
    (3): Linear(in_features=128, out_features=128, bias=True)
  ))
    (4): ReLU(inplace=True)
    (5): BatchNorm1d(128, eps=1e-05, momentum=0.1, affine=True, track_running_stats=True)
    (6): <function global_max_pool at 0x7fe5c3ea1c60>
    (7): Linear(in_features=128, out_features=128, bias=True)
    (8): BatchNorm1d(128, eps=1e-05, momentum=0.1, affine=True, track_running_stats=True)
    (9): ReLU()
    (10): Dropout(p=0.1, inplace=False)
    (11): Linear(in_features=128, out_features=128, bias=True)
    (12): ReLU()
  )
  (fcn): Sequential(
    (0): Linear(in_features=256, out_features=128, bias=True)
    (1): BatchNorm1d(128, eps=1e-05, momentum=0.1, affine=True, track_running_stats=True)
    (2): ELU(alpha=1.0)
    (3): Dropout(p=0.1, inplace=False)
    (4): Linear(in_features=128, out_features=64, bias=True)
    (5): BatchNorm1d(64, eps=1e-05, momentum=0.1, affine=True, track_running_stats=True)
    (6): ELU(alpha=1.0)
    (7): Dropout(p=0.1, inplace=False)
    (8): Linear(in_features=64, out_features=1, bias=True)
  )
)
2023-04-02 12:37:49,468 INFO     TRAINING the model
2023-04-02 12:40:15,293 INFO     Finished reading drug response matrix: (137835, 9)
2023-04-02 12:40:15,299 INFO     DRM Number of unique cell-lines: 856
2023-04-02 12:40:15,600 INFO     Finished reading cell-line graphs: Data(x=[643, 4], edge_index=[2, 6080])
2023-04-02 12:40:15,634 INFO     Finished reading drug SMILES graphs: Data(x=[26, 9], edge_index=[2, 60], edge_attr=[60, 3], smiles='CC[C@@]1(c2cc3c4c(cc5ccccc5n4)Cn3c(=O)c2COC1=O)O')
…
