…
2023-04-02 19:44:01,399 INFO     # drugs        : 181
2023-04-02 19:44:01,399 INFO     # genes        : 564
2023-04-02 19:44:01,399 INFO         Finished creating pytorch training datasets!
2023-04-02 19:44:01,399 INFO         Number of batches per dataset:
2023-04-02 19:44:01,399 INFO             train : 862
2023-04-02 19:44:01,399 INFO             test  : 216
2023-04-02 19:44:01,399 INFO     device: cuda
2023-04-02 19:44:01,456 INFO     Number of GPUs: 1
2023-04-02 19:44:01,456 INFO     GPU Usage: 0
2023-04-02 19:44:03,901 INFO     GraphGraph(
  (cell_emb): Sequential(
    (0): GATConv(4, 128, heads=1)
    (1): BatchNorm1d(128, eps=1e-05, momentum=0.1, affine=True, track_running_stats=True)
    (2): ReLU(inplace=True)
    (3): GATConv(128, 128, heads=1)
    (4): BatchNorm1d(128, eps=1e-05, momentum=0.1, affine=True, track_running_stats=True)
    (5): ReLU(inplace=True)
    (6): GATConv(128, 128, heads=1)
    (7): BatchNorm1d(128, eps=1e-05, momentum=0.1, affine=True, track_running_stats=True)
    (8): <function global_max_pool at 0x7ff81b5fdc60>
    (9): Linear(in_features=128, out_features=128, bias=True)
    (10): ReLU()
    (11): Dropout(p=0.1, inplace=False)
    (12): Linear(in_features=128, out_features=128, bias=True)
    (13): ReLU()
    (14): Dropout(p=0.1, inplace=False)
  )
  (drug_emb): Sequential(
    (0): GINConv(nn=Sequential(
    (0): Linear(in_features=9, out_features=128, bias=True)
    (1): BatchNorm1d(128, eps=1e-05, momentum=0.1, affine=True, track_running_stats=True)
    (2): ReLU()
    (3): Linear(in_features=128, out_features=128, bias=True)
  ))
    (1): ReLU(inplace=True)
    (2): BatchNorm1d(128, eps=1e-05, momentum=0.1, affine=True, track_running_stats=True)
    (3): GINConv(nn=Sequential(
    (0): Linear(in_features=128, out_features=128, bias=True)
    (1): BatchNorm1d(128, eps=1e-05, momentum=0.1, affine=True, track_running_stats=True)
    (2): ReLU()
    (3): Linear(in_features=128, out_features=128, bias=True)
  ))
    (4): ReLU(inplace=True)
    (5): BatchNorm1d(128, eps=1e-05, momentum=0.1, affine=True, track_running_stats=True)
    (6): <function global_max_pool at 0x7ff81b5fdc60>
    (7): Linear(in_features=128, out_features=128, bias=True)
    (8): BatchNorm1d(128, eps=1e-05, momentum=0.1, affine=True, track_running_stats=True)
    (9): ReLU()
    (10): Dropout(p=0.1, inplace=False)
    (11): Linear(in_features=128, out_features=128, bias=True)
    (12): ReLU()
  )
  (fcn): Sequential(
    (0): Linear(in_features=256, out_features=128, bias=True)
    (1): BatchNorm1d(128, eps=1e-05, momentum=0.1, affine=True, track_running_stats=True)
    (2): ELU(alpha=1.0)
    (3): Dropout(p=0.1, inplace=False)
    (4): Linear(in_features=128, out_features=64, bias=True)
    (5): BatchNorm1d(64, eps=1e-05, momentum=0.1, affine=True, track_running_stats=True)
    (6): ELU(alpha=1.0)
    (7): Dropout(p=0.1, inplace=False)
    (8): Linear(in_features=64, out_features=1, bias=True)
  )
)
2023-04-02 19:44:03,901 INFO     TRAINING the model
2023-04-02 19:45:44,278 INFO     ===Epoch 001===
2023-04-02 19:45:44,278 INFO     Train | MSE: 6.70876 | RMSE: 2.59013 | MAE: 2.19132 | R2: 0.05516 | PCC: 0.78647 | SCC: 0.73434
2023-04-02 19:45:44,278 INFO     Test  | MSE: 3.40448 | RMSE: 1.84512 | MAE: 1.49005 | R2: 0.52119 | PCC: 0.84831 | SCC: 0.81633
…
