…
2023-04-07 12:13:12,651 INFO     # drugs        : 181
2023-04-07 12:13:12,652 INFO     # genes        : 602
2023-04-07 12:13:12,652 INFO         Finished creating pytorch training datasets!
2023-04-07 12:13:12,652 INFO         Number of batches per dataset:
2023-04-07 12:13:12,652 INFO             train : 862
2023-04-07 12:13:12,652 INFO             test  : 216
2023-04-07 12:13:12,652 INFO     device: cuda
2023-04-07 12:13:12,711 INFO     Number of GPUs: 1
2023-04-07 12:13:12,711 INFO     GPU Usage: 0
2023-04-07 12:13:15,775 INFO     GraphGraph(
  (cell_emb): Sequential(
    (0): GATConv(4, 128, heads=1)
    (1): BatchNorm1d(128, eps=1e-05, momentum=0.1, affine=True, track_running_stats=True)
    (2): ReLU(inplace=True)
    (3): GATConv(128, 128, heads=1)
    (4): BatchNorm1d(128, eps=1e-05, momentum=0.1, affine=True, track_running_stats=True)
    (5): ReLU(inplace=True)
    (6): GATConv(128, 128, heads=1)
    (7): BatchNorm1d(128, eps=1e-05, momentum=0.1, affine=True, track_running_stats=True)
    (8): <function global_max_pool at 0x7f588607cc10>
    (9): Linear(in_features=128, out_features=128, bias=True)
    (10): ReLU()
    (11): Dropout(p=0.1, inplace=False)
    (12): Linear(in_features=128, out_features=128, bias=True)
    (13): ReLU()
    (14): Dropout(p=0.1, inplace=False)
  )
  (drug_emb): Sequential(
    (0): GINConv(nn=Sequential(
    (0): Linear(in_features=9, out_features=128, bias=True)
    (1): BatchNorm1d(128, eps=1e-05, momentum=0.1, affine=True, track_running_stats=True)
    (2): ReLU()
    (3): Linear(in_features=128, out_features=128, bias=True)
  ))
    (1): ReLU(inplace=True)
    (2): BatchNorm1d(128, eps=1e-05, momentum=0.1, affine=True, track_running_stats=True)
    (3): GINConv(nn=Sequential(
    (0): Linear(in_features=128, out_features=128, bias=True)
    (1): BatchNorm1d(128, eps=1e-05, momentum=0.1, affine=True, track_running_stats=True)
    (2): ReLU()
    (3): Linear(in_features=128, out_features=128, bias=True)
  ))
    (4): ReLU(inplace=True)
    (5): BatchNorm1d(128, eps=1e-05, momentum=0.1, affine=True, track_running_stats=True)
    (6): <function global_max_pool at 0x7f588607cc10>
    (7): Linear(in_features=128, out_features=128, bias=True)
    (8): BatchNorm1d(128, eps=1e-05, momentum=0.1, affine=True, track_running_stats=True)
    (9): ReLU()
    (10): Dropout(p=0.1, inplace=False)
    (11): Linear(in_features=128, out_features=128, bias=True)
    (12): ReLU()
  )
  (fcn): Sequential(
    (0): Linear(in_features=256, out_features=128, bias=True)
    (1): BatchNorm1d(128, eps=1e-05, momentum=0.1, affine=True, track_running_stats=True)
    (2): ELU(alpha=1.0)
    (3): Dropout(p=0.1, inplace=False)
    (4): Linear(in_features=128, out_features=64, bias=True)
    (5): BatchNorm1d(64, eps=1e-05, momentum=0.1, affine=True, track_running_stats=True)
    (6): ELU(alpha=1.0)
    (7): Dropout(p=0.1, inplace=False)
    (8): Linear(in_features=64, out_features=1, bias=True)
  )
)
2023-04-07 12:13:15,775 INFO     TRAINING the model
2023-04-07 12:15:08,778 INFO     ===Epoch 001===
2023-04-07 12:15:08,779 INFO     Train | MSE: 6.78642 | RMSE: 2.60508 | MAE: 2.19950 | R2: 0.04419 | PCC: 0.78037 | SCC: 0.72789
2023-04-07 12:15:08,779 INFO     Test  | MSE: 3.27156 | RMSE: 1.80875 | MAE: 1.45612 | R2: 0.53990 | PCC: 0.84751 | SCC: 0.81985
…
